saved_model/trained_model.pt (torch_old, 243170 bytes, 9 tensors)

weight f4 [6, 1, 5, 5]
000000 90 49 92 bd 09 a5 1a 3e 47 05 94 bd ad 3e 19 3e
       -0.07142937 0.15102018 -0.07227569 0.14965315
000010 59 bf 36 be d3 b0 4d b9 17 fa 19 3e b5 39 1a be
       -0.17846431 -0.00019616196 0.15036808 -0.15061076
000020 7e 9a 9c 3d d1 dc 02 3e 4a f7 30 be 2e 7e dc 3b
       0.076466545 0.12779547 -0.17281833 0.006728909
000030 4f f3 72 bd 04 4c 1a be 56 62 1f be b6 a3 43 be
       -0.05931407 -0.1506806 -0.15564856 -0.1910542
000040 5f 38 0b 3e 77 10 7c bd ca 78 86 bd 64 ea 6f 3d
       0.13595723 -0.06153914 -0.065660074 0.05857314
000050 1c 21 56 bd 63 16 a2 bd 27 d2 0d be 22 51 45 be
       -0.05227767 -0.07914426 -0.13849698 -0.19269231
000060 11 fa 10 3c f5 f2 6e be af bc 38 3e 25 e1 55 be
       0.008848683 -0.23334868 0.18040727 -0.20886667
000070 b8 71 19 3e 95 be 01 3e 46 ff 56 be c3 f9 46 3e
       0.14984787 0.12670358 -0.20995817 0.19431214
000080 3f 40 40 be 43 98 61 3e 65 80 17 bd a0 8a 78 be
       -0.18774508 0.2203074 -0.03698768 -0.24271631
000090 2f 7e 85 3e cc 04 9f bd ff 58 96 3e 6f 18 80 be
       0.26072833 -0.07764587 0.29364774 -0.2501864
0000a0 c3 27 17 be c2 ff 02 3e 9e 8f 4c be 83 f3 a5 3e
       -0.14761262 0.12792876 -0.1997666 0.32412347
0000b0 b3 90 f1 bd 6f ed a1 3d e8 83 b7 3d 82 42 5c be
       -0.11795177 0.07906615 0.08960706 -0.21509746
0000c0 4e aa 4d 3e e5 18 71 be 39 c8 c2 bd c5 9c 9e 3d
       0.20084497 -0.23544653 -0.09510846 0.07744745
0000d0 7c c7 92 bd 22 8b 95 3d ff d8 28 3e 99 91 3a be
       -0.07166955 0.07301928 0.16489027 -0.18219604
0000e0 64 63 4a be 39 20 00 3e 0d 34 33 be 92 62 c4 bd
       -0.19764477 0.12512292 -0.17500325 -0.09589113
0000f0 90 de fd bd a8 b4 6d bd cf 64 de 3d 03 19 68 3d
       -0.12395966 -0.058033615 0.108590715 0.056664478
000100 48 a1 4c be 2e 12 b9 3d 7d db a1 bd 5f a1 2c be
       -0.19983399 0.090366706 -0.07903192 -0.16858433
000110 a7 44 59 bd 2b 38 de 3b 90 b5 0f 3e 6a 3a 28 3e
       -0.053043988 0.006781598 0.14034104 0.16428533
000120 c6 f2 e1 bd 59 57 f8 bd f1 c2 36 3e f4 14 d8 bd
       -0.110326335 -0.12126035 0.17847802 -0.105508715
000130 d4 9d 81 3d db 78 13 be bd 1d 52 bd c8 96 b0 3d
       0.063289315 -0.14401571 -0.051297892 0.08622509
000140 74 97 87 3c 14 86 37 be 61 d1 2d be 2d 00 20 3a
       0.01655171 -0.1792224 -0.16974403 0.0006103542
000150 a3 bd 25 3e 87 b7 4b 3e de 1d da 3d fb 61 1b 3c
       0.16185622 0.19894229 0.10650228 0.00948381
000160 e9 45 00 be b7 a2 f0 bd ba f4 3e 3e fb b2 80 3d
       -0.12526669 -0.117497854 0.18648043 0.06284138
000170 0d 86 88 be c8 fd 09 3e 15 77 22 3e b1 f2 31 3e
       -0.26664773 0.13475716 0.15865739 0.17377736
000180 32 bf 38 be 32 40 6e be 77 b0 34 3e 46 b5 5e bc
       -0.18041685 -0.23266676 0.17645441 -0.013593024
000190 bf 57 11 3c 95 06 25 bc c4 01 ee bd 2a bc 97 bd
       0.008871018 -0.01007237 -0.116214305 -0.07408936
0001a0 b8 2a 6f 3e 74 b3 86 be d7 ac a0 3e 2e 01 9a bd
       0.2335614 -0.26308787 0.31381866 -0.07519756
0001b0 91 7d 6e be 0f 29 79 3e 92 1f 43 bd 8b 7d 9e 3e
       -0.23290087 0.24332069 -0.04763753 0.30955157
0001c0 78 cc 37 bd fd a2 44 3b cf 8d e1 bd 6b 02 68 be
       -0.04487273 0.0030004375 -0.11013376 -0.22657172
0001d0 a2 fd 20 3e e5 03 f8 bd 83 cf d2 bd e3 00 1c be
       0.15721753 -0.12110118 -0.10293486 -0.15234713
0001e0 c6 92 22 bd 8d b8 53 3d 3c 79 e9 3d 2f d1 c9 3c
       -0.039690755 0.051689673 0.11400077 0.02463588
0001f0 6e 29 0d 3e aa 87 05 bd 9a fe 3b 3e 5d ac ee 3d
       0.13785335 -0.032600082 0.18358842 0.116539694
000200 1e dd 67 bd 76 87 8a 3d 85 2b 8d bd 99 92 c0 3d
       -0.05660736 0.067641184 -0.06893066 0.09402961
000210 64 49 43 bb 4e 1e 28 3e 97 e3 7a be a6 30 ab 3d
       -0.0029798383 0.1641781 -0.24500881 0.08358888
000220 fd 9e a1 bc d8 26 dd 3c 15 74 b5 3d 91 75 2f be
       -0.019729132 0.026996061 0.088600315 -0.17134692
000230 39 5f 3a be de cf 35 3e 0a 67 b0 3d 7a 3b c1 bd
       -0.18200387 0.17755076 0.08613403 -0.094351724
000240 c8 31 cb 3d 27 5c e5 3d 76 21 5a 3d 22 f3 19 be
       0.099216044 0.11199217 0.053254567 -0.15034154
000250 c8 62 57 be a6 ef 30 bb
       -0.21033776 -0.002699831

bias f4 [6]
000000 c0 94 4c 3d 54 6a b3 3d f6 61 f5 bd d5 f5 ca 3d
       0.049946547 0.08760515 -0.11981575 0.0991017
000010 b3 85 d0 3a 43 52 1a ba
       0.0015908986 -0.0005886892

weight f4 [16, 6, 5, 5]
000000 51 2c f5 bb f8 ab a8 3d fe 80 43 bd b9 8f 49 bc
       -0.0074820896 0.082359254 -0.04773044 -0.012302333
000010 0d b7 87 bc 2e 52 0d bd e0 8a 78 bd 16 ab 3b bc
       -0.016566778 -0.0345022 -0.060679317 -0.011454364
000020 ae ba 80 3d 2d 9f 70 3d 15 1d 4c 3d 4c c1 26 3d
       0.06285606 0.05874555 0.049832422 0.040711686
000030 7b 4f da 3b ee 98 a0 3c df 78 57 3d 17 e0 7a 3d
       0.006662307 0.019604173 0.052605506 0.061248865
000040 aa 8b 42 bb 10 4d dd bc 19 ba 0b bc 5a 90 78 bb
       -0.0029685297 -0.027014285 -0.008528256 -0.0037927837
000050 b2 ae 34 bd a6 43 8e 3b 12 62 fd bc 4a 50 81 bd
       -0.044111915 0.0043415604 -0.030930553 -0.06314142
000060 9b cf 8f 3d 31 60 83 bd 2d 79 e4 3c 2c 7b f4 3b
       0.070220195 -0.064148314 0.027889812 0.0074609723
000070 a8 85 a8 bd f6 11 94 bd a4 17 eb bd a4 5e 9e 3c
       -0.08228618 -0.07229988 -0.114791185 0.019332238
000080 8f 37 51 bd 27 3b f3 bd 45 7d c1 bd e0 1b f1 3c
       -0.051078375 -0.11876517 -0.094477214 0.029432237
000090 a0 16 9b bd 93 fe f8 bd 72 83 ca bc 1e 92 29 3b
       -0.07572675 -0.12157931 -0.024720881 0.0025874446
0000a0 82 ba 07 bd 9f 5c 5e b7 3a 06 8a 3c 01 10 df bd
       -0.033136852 -1.3253796e-05 0.016848672 -0.108917244
0000b0 17 37 ee bd f3 2f 56 bd dc e3 d8 bd 1d e8 f2 bd
       -0.11631601 -0.05229182 -0.10590336 -0.11860678
0000c0 3d 72 c1 3c d8 4a 54 bd 38 35 30 3c 20 08 94 3b
       0.023614043 -0.05182919 0.010754876 0.00451757
0000d0 99 bd 67 3d f3 af 0b 3d d3 a4 92 3d 37 96 2c 3a
       0.0565773 0.034103345 0.07160344 0.0006583663
0000e0 66 6c 17 3a 4d 25 12 3d 3b 4a 44 3d df d0 d4 bc
       0.00057763455 0.035680104 0.047922354 -0.025978504
0000f0 7b b9 c2 bc 97 e8 aa 3c f6 8f 4a 3d bb 47 d9 3b
       -0.023770085 0.02086286 0.049453698 0.0066308654
000100 79 a1 81 3d 1c ed 62 bd 50 8c 1d bd c0 f4 10 bc
       0.063296266 -0.055401906 -0.03846389 -0.008847415
000110 df 09 4d 3b bd 03 86 3d fc 26 07 3d 69 b2 c3 3c
       0.0031286401 0.06543682 0.032996163 0.023888784
000120 81 05 24 bb 2d 41 41 bd 8c 73 38 bc f2 52 61 3d
       -0.0025027695 -0.047181297 -0.011258017 0.055010743
000130 92 b8 c4 bc 64 35 cc bd b5 19 f2 3c 21 0c 2e 3d
       -0.024013791 -0.09971121 0.029553274 0.042492036
000140 04 2a 41 3d db 43 2b bd c4 96 ac bc f0 5f f2 3c
       0.04715921 -0.04181276 -0.021067984 0.029586762
000150 83 83 94 3c 7f 72 fa 3c 6a 8e 58 3d 20 bd a4 bd
       0.018129116 0.030572174 0.05287019 -0.08043885
000160 29 b1 8a 3d aa 22 6a 3d fa 04 8d bb 95 dc 26 3d
       0.06772072 0.057161964 -0.004303572 0.040737707
000170 65 3a 0f bb 95 27 02 bc d7 53 f9 bb d1 ff 0a 3d
       -0.0021854874 -0.007944007 -0.0076088714 0.03393537
000180 50 46 ea bc e0 c4 ba 3c c3 da 9a 3d a9 ec 5f bd
       -0.02859798 0.022798955 0.07561257 -0.054669056
000190 5c 79 af bd 7e de 89 bd ec 4e 3d 3d 05 27 be bd
       -0.08568069 -0.0673189 0.046217844 -0.09284786
0001a0 77 23 17 bd 76 1b 53 bc 68 8f 9c 3c 2e a7 0e bd
       -0.036899056 -0.012884965 0.01911135 -0.034827404
0001b0 00 f7 80 3b 2b 29 c7 bd 73 f2 9a bc 3f d8 31 bd
       0.0039356947 -0.09724649 -0.018914437 -0.04341912
0001c0 1e 83 f3 bd 0a 0a ad bd 1e d8 a9 bb f2 c2 3c 3d
       -0.11890243 -0.084491804 -0.005183234 0.04608435
0001d0 76 94 47 3d 03 3c 1d bd cc b3 c1 bc 61 a1 8b bd
       0.048725568 -0.03838731 -0.023645304 -0.0681789
0001e0 d8 62 c6 bd 77 c6 04 bd b0 7d 88 3c 66 f9 dd bc
       -0.09686822 -0.032415833 0.016661495 -0.027096462
0001f0 2f 16 93 bd 21 c6 a3 3d ae 36 41 bd c3 a9 e6 bb
       -0.071819656 0.079967745 -0.047171287 -0.00703928
000200 2f 28 04 bc 54 ba 24 3d bf c9 08 bd 3a 7f 17 3d
       -0.008066221 0.04021676 -0.033395525 0.036986567
000210 c3 09 35 3d b0 92 4f bd 41 5f be bd ec 1c d1 ba
       0.044198763 -0.050677 -0.09295512 -0.0015954054
000220 23 c4 08 bd 13 bf a4 bd 4c 73 9d bc 30 2e 00 3c
       -0.033390176 -0.08044257 -0.019220017 0.007823512
000230 fb 27 08 3d 7b 64 c7 3b 2b 30 8d 36 4d ef 15 bd
       0.033241253 0.0060849763 4.207735e-06 -0.036605168
000240 e7 39 80 ba 1e fc 30 bd 28 92 83 bd 16 36 71 bd
       -0.0009782881 -0.043209188 -0.064243615 -0.05888947
000250 88 76 a6 bc f3 28 29 3d 11 e7 41 bd cd 80 1a 3d
       -0.020320192 0.041298818 -0.047339503 0.03772049
000260 e0 4c 70 3d 97 52 ee bc 9a ea 9f 3c 19 ff 9e bc
       0.058667064 -0.029092116 0.019521046 -0.01940875
000270 6d d9 f6 3c c7 3e 86 bc bf e9 c9 3c 47 c9 39 3c
       0.030132974 -0.016387356 0.024647592 0.011339492
000280 35 3b a2 3d b0 fb 2a bd 30 69 81 bd 22 ea 7a bd
       0.07921449 -0.041743934 -0.06318891 -0.061258443
000290 6f 62 81 bd 99 a9 65 bd fd 7b 84 bc e3 4e 55 bd
       -0.06317603 -0.056069944 -0.016172403 -0.052077185
0002a0 bd 8d 16 bd f7 d3 8f 3b 67 d4 04 bd 22 e3 12 bd
       -0.036756266 0.004389282 -0.032429125 -0.035861142
0002b0 00 a6 4a bd 0a ec 23 3d 95 53 1f 3d 1c 31 a0 3d
       -0.049474716 0.040020026 0.03889807 0.07821867
0002c0 cd 50 0c bd 30 ff c8 3c 5b 5e 5b 3d a6 39 7e 3c
       -0.034256745 0.024535745 0.05355678 0.015516674
0002d0 a4 c9 4d 3d 05 81 d2 3d 54 64 bc 3d 48 46 9b 3d
       0.050241128 0.10278515 0.091988236 0.075817645
0002e0 c2 fb ea 3b 88 1a 03 3e 0c 79 94 3b 28 ff 8c bc
       0.007171125 0.1280309 0.0045310315 -0.017211512
0002f0 e6 71 9f 3d 88 aa 41 3d 4f ab b7 3d c5 6e 4d bb
       0.07785396 0.047281772 0.089682214 -0.0031346541
000300 65 88 8b bd 6c 49 fa 3a 9b 2c 05 3e a8 9a 85 bb
       -0.068131246 0.0019095368 0.13005297 -0.0040772744
000310 ca 0e 27 bd 4c a6 08 3d 2f 00 c7 3c f4 fd c4 3d
       -0.04078559 0.033361718 0.02429208 0.0961875
000320 04 04 35 bd 9d 10 65 3b 66 c9 ac 3c b4 45 5c bd
       -0.044193283 0.003495253 0.021092128 -0.05377741
000330 86 e6 f2 3c 8d 38 fd bc 84 af 56 bc 5d 6d 0d 3d
       0.029650938 -0.030910755 -0.01310337 0.034528125
000340 fb 2a 46 3d 69 92 f9 3b 1b dd 80 3d 9c d4 af 3b
       0.048380833 0.0076163304 0.062921725 0.005365921
000350 cd 8b 80 bd 5d ba 5b 3d a6 53 98 3d 77 fd 91 3b
       -0.06276665 0.053644527 0.0743783 0.004455264
000360 8d 40 9f 3d 62 aa 7f bc 64 db 88 bc 03 6d 09 bd
       0.07775984 -0.015604587 -0.016706176 -0.033551227
000370 7c aa 8a 3d 0f a1 09 bb 77 20 99 3d 6a 10 44 bb
       0.067707986 -0.002100054 0.07476895 -0.002991701
000380 08 ab 4c bd 16 fb 25 bd f2 7a 10 3c 82 aa 67 bd
       -0.049967796 -0.040522657 0.008818375 -0.056559093
000390 00 f6 a9 3d 4b 4b 86 3d f1 37 c4 3c c7 10 89 bc
       0.08298874 0.0655733 0.023952456 -0.016731633
0003a0 04 2e 11 bd d7 bd 80 3d a7 27 8e bd 7a e8 88 3c
       -0.035444275 0.06286209 -0.06941157 0.016712416
0003b0 9f 4e f8 3c f7 62 39 bd 50 3c a7 3d 37 af b1 3c
       0.030310927 -0.045260396 0.081658006 0.021689994
0003c0 6c e5 71 bc 5f f2 68 bb d2 17 8e 3d a1 d8 c7 3d
       -0.014764171 -0.0035544855 0.06938137 0.097581156
0003d0 14 71 cf 3c af bb 7f 3d 21 e8 dc bc 9a 26 af 3d
       0.025322475 0.06243485 -0.026966156 0.085522845
0003e0 b5 35 25 bd 4f c6 3b bd d9 f0 cb 3d c2 ce 58 bd
       -0.040334422 -0.04584342 0.099580474 -0.052931555
0003f0 11 9e 53 3d 88 00 b5 3d 50 8f 9e 3d 7d 76 fa 3b
       0.051664416 0.08837992 0.077421784 0.0076435194

bias f4 [16]
000000 81 ec 5f 3e 46 c7 8c 3d af fa 06 bd 17 be 66 ba
       0.21867563 0.06873946 -0.032953914 -0.00088021293
000010 02 07 56 3d 48 09 47 bd f7 70 cc 3b 42 f4 ae 3b
       0.052252777 -0.048592836 0.0062390524 0.0053391764
000020 7e 5e 4d bc 06 a7 98 3d c4 9b cb bd be 8b 94 bd
       -0.012534736 0.07453732 -0.09941819 -0.07253216
000030 e0 37 11 be 62 80 d0 bc 20 79 c0 bd 85 a4 df bd
       -0.14181471 -0.025451843 -0.09398103 -0.109200515

weight f4 [128, 400]
000000 38 93 da 3c b6 35 57 bb bc 07 c5 bb 81 2c 24 bd
       0.026681527 -0.003283841 -0.006012885 -0.040081505
000010 68 c0 37 3d ba 83 4d bd 44 b4 47 bb b7 47 a5 3c
       0.044861227 -0.050174452 -0.0030472437 0.020175798
000020 f4 f4 85 3b 6e 3a cf 3a 98 c7 a9 3c aa cd 3d 3c
       0.0040880386 0.001581026 0.020725057 0.011584679
000030 63 19 81 ba 48 64 5c bd 6d 8f e4 bc 84 5a 0b bd
       -0.0009849485 -0.053806573 -0.027900422 -0.03402187
000040 d2 a2 e1 3b 13 e6 83 bc fa 53 60 bd fa 9b 8e 3c
       0.006885865 -0.016100919 -0.054767586 0.01740836
000050 20 85 18 3d d1 08 51 bd 9d 28 44 bd 81 d2 5a bd
       0.037236333 -0.0510338 -0.047890294 -0.05342341
000060 71 b1 eb 3b 01 45 06 3d ec e1 37 3d 87 f0 0c 3d
       0.0071927835 0.03278065 0.04489319 0.034409072
000070 2f a3 55 3c 9f 11 24 bd 75 01 11 bb b4 4f 4d bd
       0.013039394 -0.040055867 -0.0022126113 -0.05012484
000080 6a 3e 54 ba d0 4f 88 3c 98 e5 22 bd 10 c9 fb 3c
       -0.00080964586 0.01663962 -0.03976974 0.030735523
000090 af 07 5c bc f8 b8 17 3d 6b 34 dd 3c 09 2d dc 3c
       -0.013429566 0.037041634 0.027002534 0.026876943
0000a0 f1 a1 03 3d 7c 13 44 3d 0b e3 e8 3c 5c e8 4f 3d
       0.03213686 0.047870144 0.028428575 0.050758705
0000b0 65 d7 49 3d dd d2 3b bb 91 a5 13 3d c3 64 88 3c
       0.04927768 -0.002865962 0.03604657 0.01664961
0000c0 f6 e8 89 bc 5d 6b bc 3c c4 76 6b bc a8 21 9d 3b
       -0.016834717 0.023000414 -0.014371578 0.004795272
0000d0 ba a0 f9 3c c1 ac 0d 3d 70 d1 57 bc c8 fa 24 3d
       0.030472148 0.03458858 -0.013172492 0.040278226
0000e0 0d 4e a4 b9 e1 af 26 bb 31 66 28 bc e7 3a 4a bc
       -0.0003133867 -0.0025434422 -0.010278271 -0.012343145
0000f0 f4 af 14 bd c9 a0 1d bd c8 3e 40 bb f3 a1 29 3c
       -0.036300614 -0.038483415 -0.0029334296 0.010353553
000100 7a 0c 61 bc 42 de 45 bd bd ea 02 3b b1 63 c9 bc
       -0.013735885 -0.048307665 0.001997634 -0.02458367
000110 52 54 0b 3d 63 ac 9c 3b 85 fd ce 3c 0e d3 e4 3c
       0.03401596 0.0047812923 0.025267372 0.02793267
000120 7d ba 67 3c ec 95 a4 bc 28 77 29 3d df 9c a3 bc
       0.014143583 -0.02009102 0.041373402 -0.019972263
000130 29 1b 0b 3c da 3e 29 bc 79 f6 75 bc b5 e3 98 bc
       0.008490362 -0.010329926 -0.015012377 -0.018663267
000140 e1 06 08 3d b6 82 e9 3c b8 e1 66 3c f7 36 49 bd
       0.033209685 0.02850471 0.0140919015 -0.049124684
000150 83 7e 79 bc fb 4d bb bc 97 1f e4 bc 61 4c b3 bc
       -0.015227917 -0.022864332 -0.027847094 -0.021887006
000160 e2 05 6a 3c b0 54 1b bd 3c c6 e0 3b b5 83 00 3d
       0.014283629 -0.03792256 0.006859569 0.031375606
000170 34 af e8 bb 1b 79 05 bd 25 d9 2f bd b7 e0 75 3b
       -0.007100964 -0.0325862 -0.042931695 0.0037517974
000180 7b be 37 3c 67 3a f5 3c 09 f9 46 bd 7d bb 83 bc
       0.011214848 0.029935075 -0.048577342 -0.016080612
000190 74 d9 8a 3b 64 46 2e bd 1a eb 23 3d 8c 98 74 3c
       0.004237348 -0.0425476 0.040019132 0.014928948
0001a0 d0 4e c4 bc a1 cd 22 bd ac cb 2c bd 57 b5 f0 b8
       -0.023963362 -0.039746884 -0.042186424 -0.00011477869
0001b0 5b 18 42 3c 1b c6 9d bc 5d 6d 02 3d 87 22 2e bc
       0.011846627 -0.019259503 0.03184258 -0.010628349
0001c0 84 45 b1 bb d7 ba 97 3c 29 29 03 3c 54 c2 66 39
       -0.0054098982 0.01852171 0.008005419 0.00022006902
0001d0 d9 d8 43 bd d7 18 04 bd 7c 52 0e bd a1 ae 1f 3d
       -0.047814224 -0.03225025 -0.034746632 0.0389849
0001e0 b1 91 3d bc 16 be 98 3c fa ea 23 bd 85 14 0d bd
       -0.01157038 0.018645328 -0.040019013 -0.034443397
0001f0 ae f9 29 3c e2 6a 1c bd db 88 42 bc 6f cd 45 bc
       0.01037447 -0.03818787 -0.011873449 -0.012072905
000200 2b 72 43 bd 1c c9 2f bd 1a ee 4c bd 2f 4c 9e bb
       -0.0477163 -0.042916402 -0.05003176 -0.004830859
000210 83 5e 55 bd 9a 0c 2f bd ca 27 49 bd d3 6c 0c bd
       -0.052092087 -0.042736627 -0.04911021 -0.03428347
000220 56 49 3e bd d9 4b c0 bc 66 e4 c0 bc 65 92 45 bd
       -0.046456657 -0.023473667 -0.023546409 -0.048235316
000230 20 60 b2 3c bc 5b a6 3c 1e b4 29 3a 87 19 0b bc
       0.021774352 0.020307414 0.0006473678 -0.008489973
000240 f8 8f a4 bc da 6d d5 bc bb df e9 bc 06 b8 0f 3d
       -0.02008818 -0.026053358 -0.028549066 0.035087608
000250 da 2a 0c 3c 8d 3d 5c bc e3 5b a0 bb 27 38 11 3d
       0.0085551385 -0.013442409 -0.0048937663 0.03545394
000260 69 2b 27 bd 52 fe fe bc 40 a3 07 bd 2f df e3 3c
       -0.040812884 -0.031127129 -0.03311467 0.027816383
000270 73 47 9a bc 10 6b 26 bd d4 90 96 bc 28 50 13 3d
       -0.018832898 -0.040629447 -0.018379606 0.035965115
000280 46 36 85 3a 7d 11 00 bc fe 33 2f bd f3 f6 22 b9
       0.001016327 -0.0078166695 -0.042774193 -0.0001554152
000290 d2 21 0b 3d aa d6 bc 3c 40 7b 45 bd 41 6e 9e b9
       0.0339678 0.023051579 -0.048213243 -0.00030218254
0002a0 96 08 8e 3c 4d 80 6d 3c ae b1 b1 3c 5c 19 5e bc
       0.017338078 0.014495921 0.02169117 -0.013555851
0002b0 be 15 1c bd 29 ab 4f 3d 52 a7 3c 3d 33 dc cc bc
       -0.038106672 0.05070034 0.046058007 -0.025007343
0002c0 10 da e7 bc 8c c6 af 3b 74 c9 2c bd f7 e2 24 3c
       -0.028302222 0.005364245 -0.04218431 0.010063878
0002d0 5f df 32 3d 95 58 1d 3d c1 11 3d bc 7a fe 2c 3d
       0.043670055 0.038414557 -0.011539877 0.042234875
0002e0 24 39 11 bd db b0 39 3d 73 89 3f bd 51 00 ef 3b
       -0.035454884 0.04533468 -0.04676194 0.007293739
0002f0 ca d7 e2 3c e4 51 24 3d 09 98 f5 3c cc 28 bd 3c
       0.027690787 0.04011716 0.029979723 0.023090743
000300 4a 53 1a 3d 97 59 a1 bb 72 9e 2e 3d 40 9e 33 3c
       0.037677087 -0.00492401 0.042631574 0.010963023
000310 dc 4d f6 bc 2e 72 04 3a 54 7e c2 bb 43 b5 5b 3c
       -0.030066423 0.00050524145 -0.0059354696 0.013409915
000320 51 16 2a bd bc 8b 17 bd ab 23 5e 3c b8 82 b2 3a
       -0.04152519 -0.036998495 0.013558309 0.001361928
000330 b3 59 92 bb f9 99 e5 bb d0 42 d4 bc 0b ab ee bc
       -0.0044662594 -0.0070068804 -0.025910765 -0.029134294
000340 ad b9 1f bd ad 04 3f 3d d9 a7 aa 3c ec 45 2a bd
       -0.038995434 0.04663532 0.02083199 -0.04157059
000350 98 19 a0 3c a2 97 12 bd d1 3c f4 3c 36 19 2e 3d
       0.019543454 -0.03578914 0.029814156 0.04250451
000360 10 da 26 bd c3 c4 da bc 24 b0 01 3d 57 5d 11 bd
       -0.040735304 -0.026705151 0.03166212 -0.035489406
000370 56 9b 35 3d 64 da 14 bd b9 d9 6b bc 84 00 ab 3c
       0.044337593 -0.036341086 -0.014395171 0.02087427
000380 d0 ca 95 3b 1b e7 aa bc 1c 60 a1 3c 7b 52 20 bd
       0.0045712963 -0.020862153 0.019699149 -0.03914116
000390 86 6b 27 bd 52 3c c8 bb 1d fe eb bb 2f 94 bb 3c
       -0.040874027 -0.0061107064 -0.0072019235 0.022897808
0003a0 14 cc bc 3b 81 2f e3 bc f4 18 f7 3c b7 94 34 bd
       0.0057616327 -0.027732613 0.030163266 -0.044087138
0003b0 48 76 3a 3d 30 ce ca bc 1c f2 02 3d ea 3c ab ba
       0.045522958 -0.024756521 0.031969175 -0.0013064418
0003c0 8d 8b 2e bc 44 4b 13 3c c7 7e 14 3d 69 42 0d bd
       -0.010653389 0.008990113 0.036253717 -0.03448716
0003d0 e7 da 55 bc 43 bf 91 bc d8 d6 94 bc 18 4b 03 3c
       -0.013052679 -0.017791396 -0.018168852 0.008013509
0003e0 a5 5b 02 3b 20 ef b7 3c 15 fc 3d 3c ce 74 0d bd
       0.001989105 0.02245289 0.011595746 -0.03453522
0003f0 01 92 5b bd ac a2 45 bb 71 78 62 bc 87 6d 3f 3d
       -0.053606037 -0.0030156774 -0.013822661 0.046735313

bias f4 [128]
000000 0d 1e 4d 3d e5 6d 35 3d b0 1a 01 bd 6f c8 f4 bc
       0.050077487 0.044294257 -0.03151959 -0.02988073
000010 01 7d 89 3c d3 5c ad bc d5 17 f1 3c d3 81 b3 bc
       0.01678324 -0.021162426 0.02943031 -0.021912491
000020 44 6a da bd f0 8a 3e 3d 79 c8 65 3b 89 5c 74 3b
       -0.106648 0.04651922 0.0035062118 0.00372866
000030 95 57 fb bc b2 3f d8 bb f5 2e 66 ba 77 7b 1c 3d
       -0.03068141 -0.00659939 -0.0008780801 0.038203683
000040 a0 9d 9f 3d 18 82 c0 bc d2 5c 66 3c 07 0e 7c bb
       0.077937365 -0.023499534 0.014060216 -0.003846051
000050 2f 80 70 3c 5f 25 16 3c 7b 62 eb 3d 9a 1c 1c bd
       0.014678999 0.009164183 0.11493393 -0.038113214
000060 fa 13 a6 bc dd 73 48 bd a5 6f 9a bd 6e 7e 52 ba
       -0.020273197 -0.04893862 -0.07540826 -0.0008029704
000070 79 42 c4 3d 05 83 18 3d 9d 93 b9 3c 40 0c f1 3a
       0.09582991 0.037234325 0.022653395 0.0018390492
000080 8e 24 f8 3b 49 e6 d4 bd 4a e6 c0 3d 37 40 f8 bc
       0.007572717 -0.10395486 0.09418924 -0.030304058
000090 bb 13 c8 bc c1 a2 73 bc 7c ce 47 bd 1c e7 a6 3d
       -0.02442347 -0.0148703465 -0.048780903 0.08149549
0000a0 15 90 a8 bc 1b 6d 14 3e c5 4b 60 bd 8b 64 ee bc
       -0.020576516 0.14494745 -0.05475976 -0.029100677
0000b0 39 f9 38 bd 14 d8 93 bc 6d 9f 9a 3d b5 35 15 3c
       -0.045159552 -0.01804737 0.07549939 0.009107043
0000c0 37 27 97 bc 86 18 1d bc d9 88 61 3c 13 59 01 3c
       -0.018451316 -0.009588366 0.013765537 0.007894772
0000d0 0a 7f f0 3c ac d3 1f bd b1 4b a1 3c e9 11 b7 3d
       0.029357452 -0.039020225 0.019689413 0.08938963
0000e0 d1 76 43 bc 78 d6 51 3b 9b fd b3 3c b6 f2 f7 3b
       -0.0119301835 0.0032018702 0.021971514 0.007566775
0000f0 6b a9 c6 bc ab af 6d 3c 0e 09 dc 3b 44 c3 03 bd
       -0.024250707 0.014507215 0.0067149466 -0.03216864
000100 e7 c4 82 3c e8 a1 35 bc ca 56 e9 bc e8 bb 0a bd
       0.015963031 -0.011085965 -0.028483767 -0.033870608
000110 f2 99 36 3d 37 a1 90 bb 98 c0 5d bd 6d 70 f9 bc
       0.044580407 -0.0044137496 -0.05413875 -0.030449117
000120 0c c3 8e 3c c7 fd a6 3d a6 e0 48 bd 4d 9d 64 bd
       0.01742699 0.08153873 -0.049042366 -0.055814076
000130 29 32 9c 3c ef 6c ab bd a4 3e 63 3d 17 ad 19 bd
       0.019066887 -0.08370387 0.05547966 -0.037518587
000140 bd fd d8 bc d6 8a 26 3d 6a 1d 83 3a a3 a3 22 bd
       -0.02648818 0.040659748 0.0010003273 -0.039706837
000150 32 4f fa bc ee 61 05 bc 7a d9 36 bd 7d 59 00 bd
       -0.030555341 -0.008141024 -0.044640996 -0.031335343
000160 50 f2 5c bd 76 25 04 bd 84 54 05 bd 25 ef 4b bd
       -0.053942025 -0.032262288 -0.032551304 -0.049788613
000170 b8 b1 d2 3d 1a e5 8d 3c 20 1d 33 3e 3c 6c a7 bc
       0.102878034 0.017321158 0.17491579 -0.020437352
000180 1b c1 b7 3c 89 b9 4e 3d 35 1d 80 bc bb 36 00 3d
       0.022430947 0.05046991 -0.015638927 0.031302195
000190 b2 1a 9f bd 18 5c 01 bd 25 36 c3 3c 44 63 a8 3b
       -0.077687636 -0.031581968 0.023829529 0.0051387865
0001a0 f3 52 94 3d 41 65 16 bd 1b 4d 4d 3c 4d 43 06 3d
       0.07242384 -0.036717657 0.01253059 0.032779027
0001b0 3e 6d 40 3c 00 77 54 3b 8b 10 6a 3d da f0 de 3c
       0.011744795 0.0032419562 0.057144683 0.027214456
0001c0 d6 9b 97 bc fc c7 36 3d 43 1f 52 3d 1a 1e db 3c
       -0.018506926 0.044624314 0.051299345 0.026747752
0001d0 5d 24 b1 3c 24 e7 24 bd 6a 75 de 3c 62 c7 19 3d
       0.021623785 -0.040259495 0.027155597 0.037543662
0001e0 15 59 ec 3c fb 3f 12 3d b2 47 07 bd 5a a7 99 3d
       0.028851071 0.035705548 -0.03302736 0.07502623
0001f0 23 1e 2b 3c 1c 0f b4 bb 4d 22 12 3d 5f 16 14 bd
       0.010444197 -0.0054949652 0.035677243 -0.036154147

weight f4 [32, 128]
000000 4c c7 0b 3d 0f 15 9f bd a4 a5 87 bd 44 5b 3f bd
       0.03412561 -0.077676885 -0.0662339 -0.046717897
000010 b6 92 a2 bd 7d 5f 1e 3d 7c b9 02 bc 1c 8a 2f bd
       -0.07938139 0.038665283 -0.007978793 -0.04285632
000020 02 ec 42 3b 56 b3 47 3d af a8 09 bc 96 52 20 3d
       0.0029742722 0.048755012 -0.008402034 0.03914126
000030 3e 82 36 3d a6 f3 9c 3d 11 5d 88 3d 2f bb 5d 3d
       0.044557802 0.0766366 0.06658376 0.05413359
000040 c5 89 a8 3d 6f 4a 20 3d ba a5 14 bd ba cc 7c 3c
       0.082294025 0.039133485 -0.03629086 0.01542967
000050 09 90 92 3d a5 db cb bc a3 40 63 bc 2b 7e 2b 3d
       0.07156379 -0.024885008 -0.013870391 0.04186837
000060 87 8f 48 bd 4a 76 55 3d 79 c8 1b 3d 1a 55 93 bd
       -0.048965003 0.052114762 0.038032982 -0.07193966
000070 8d 7a 8d 3d 67 9d 8b bd 4d 21 02 3d 23 ad 85 3d
       0.0690814 -0.068171315 0.03177004 0.06527164
000080 57 2b 63 3d b1 8e 92 3d a3 d9 97 3d e6 12 91 bd
       0.055461254 0.071561225 0.07414558 -0.07083683
000090 da 02 a6 3d 7b b9 ea bc a7 ed c4 3c 01 96 86 3c
       0.08106013 -0.028652897 0.024039103 0.01642895
0000a0 0d d3 82 bd ab 9e 9b bd ae fa 9d 3d 5e 85 db bb
       -0.06387911 -0.07598623 0.07713829 -0.006699248
0000b0 8f 7e 6c bd 3f 73 a4 3d 51 57 2d bd 14 44 7d 3d
       -0.057737883 0.08029794 -0.0423196 0.061832502
0000c0 81 97 e2 3c 3d b1 9c bd d1 db a5 3d fc 21 a0 3d
       0.027660133 -0.07650993 0.08098567 0.07818982
0000d0 01 82 81 3d c7 4f 26 3d 45 79 85 3d b4 53 9e 3c
       0.063236244 0.040603425 0.06517271 0.019327022
0000e0 97 33 b1 3d 98 2d 1c bd df fc c5 bc 82 3a 45 bd
       0.08652418 -0.03812942 -0.02416843 -0.0481515
0000f0 9c 0c 94 bc b3 28 2e bd 96 7e 3c bc 6c 3c b2 3c
       -0.018072419 -0.042519283 -0.01150479 0.021757327
000100 70 8d 97 3c 3b 77 86 bd 49 e5 32 3c 13 ff 26 3d
       0.01850006 -0.0656571 0.010918924 0.0407706
000110 47 2c d4 b9 b1 9f 90 3d 4d 48 a7 bd b8 e6 17 bd
       -0.0004046878 0.07061709 -0.08168087 -0.037085265
000120 79 1b 99 bd 1f 6c 8f 3c ee 2c 6f bd 95 c6 8c 3d
       -0.07475943 0.01750761 -0.058392458 0.06873814
000130 d1 26 73 bd 7a 77 14 3d 92 92 19 bd 48 36 db bc
       -0.05936319 0.036246754 -0.037493296 -0.026759282
000140 1f 4c 9f 3d 8b 23 e5 bc d7 c2 0c bd 3b ad aa bd
       0.07778191 -0.02797105 -0.0343655 -0.08333822
000150 b0 5c 77 3d d2 64 8f 3b 66 55 4a 3d 60 cc 2c 3b
       0.060391128 0.0043760324 0.04939785 0.0026366934
000160 9e 76 8b 3d 30 35 49 bd d0 57 d8 bc 2d 65 a9 3d
       0.06809734 -0.04912299 -0.02640906 0.08271251
000170 6f 43 20 bd a5 34 50 3d c8 c3 96 bd 86 0b b9 3c
       -0.03912681 0.050831456 -0.07361561 0.022588503
000180 fa fc 37 bb c1 1c 89 bd dd a7 c1 3c 51 74 ba bd
       -0.002807437 -0.066949375 0.023639614 -0.09104217
000190 db fd 57 bd 6e a5 7d 3d df e8 99 3d b0 9a e6 3c
       -0.05273233 0.061925344 0.0751512 0.028149933
0001a0 e9 f2 98 3d d0 8b 8b bd 1b 4c 87 3d 4b 4a ad bd
       0.074682064 -0.068137765 0.06606313 -0.08461436
0001b0 b8 0c 94 3b 48 c5 6f 3d c0 79 94 3d 23 ec 2d 3d
       0.0045181178 0.05853775 0.072497845 0.042461526
0001c0 42 e6 d5 bc 5e 07 2c 3d e8 ba 92 3d e6 63 88 3d
       -0.026110772 0.041999213 0.07164556 0.06659679
0001d0 24 7a d7 bc 1e fb b2 bd 7f 77 82 bd e8 4d 6a 3c
       -0.026303358 -0.08739303 -0.06370448 0.014300801
0001e0 f5 31 2c bd ac 98 99 bd 36 01 69 3d 3b 20 90 bc
       -0.04203983 -0.07499823 0.05688592 -0.017593494
0001f0 bd 89 67 bd d9 e0 d5 bc 33 44 68 bb b0 73 3d 3d
       -0.05652784 -0.026108192 -0.003544104 0.046252906
000200 9a 1e 9a bd 85 1d 1f bd 98 fa 20 bd 38 d2 59 bd
       -0.07525368 -0.03884651 -0.039301485 -0.053178996
000210 ef 55 8f 3d ff c4 40 3d c6 d4 54 bd 18 c0 16 3d
       0.069988124 0.04706287 -0.05196073 0.03680429
000220 2b c3 0e 3d 3d 47 d4 3c 26 cc 1e 3d 10 ea 9c 3d
       0.034854095 0.025912875 0.03876891 0.076618314
000230 bf 93 91 bd 03 3e 8c bd 87 41 7f bd 01 f5 0e 3d
       -0.071082585 -0.06847765 -0.06231835 0.034901623
000240 77 c1 b5 3d 29 47 ae 3c 6d ea a1 bd 47 32 36 3d
       0.08874791 0.021274166 -0.07906041 0.044481542
000250 69 43 dc bc 43 3b ae 3d 5e 53 0e bd 38 b7 b4 bc
       -0.026887612 0.08507397 -0.034747474 -0.022060022
000260 42 59 5b bd 15 e4 86 3d 20 a0 b8 3d 68 3b ad bd
       -0.05355192 0.06586472 0.090149164 -0.084585965
000270 fa b2 a8 bd 38 99 c8 3c b0 6f 3a bc 18 f7 92 3c
       -0.08237262 0.024487123 -0.011379167 0.01794009
000280 92 33 db 3c bd 0b bb 3d 64 b2 32 bd fd 96 82 3c
       0.02675799 0.09133098 -0.043627158 0.015941137
000290 e0 65 51 bc 52 db 59 3d 3d 9d 06 3b 1e f9 9c bd
       -0.012780637 0.053187676 0.0020540499 -0.07664703
0002a0 fc 37 c4 3c db fa ef 3c 7c 07 7b 3d 9b 9f a5 3d
       0.023952477 0.029294422 0.061286435 0.08087083
0002b0 65 2a 86 bd 00 46 fa bb 93 78 98 3d 99 01 17 3c
       -0.06551055 -0.007637739 0.07444873 0.0092166895
0002c0 67 e5 87 3d 74 e4 56 3d c0 a8 a2 3a 8d 38 22 3b
       0.06635552 0.052463964 0.001240991 0.0024752945
0002d0 16 a4 21 bd c4 9b ee 3a c9 27 98 3d fa c4 62 3d
       -0.039463125 0.0018204381 0.074294634 0.055363633
0002e0 ce e3 56 3d 5d 25 12 bd 95 ac 40 3c a0 90 db bc
       0.052463345 -0.035680164 0.011759897 -0.026802361
0002f0 23 9c 83 3c fb 46 8d bd 4b 36 89 bd e4 c6 1f 3d
       0.016065663 -0.06898304 -0.06699809 0.039008036
000300 5f 65 ce 3d 8f a2 57 3d ab 8a 9d 3d be 2f 23 bd
       0.10077929 0.052645262 0.076924644 -0.039840452
000310 81 eb 00 bc 41 51 63 bd 4a 6a 1e 3d 9c 32 01 3d
       -0.0078686485 -0.05549741 0.038675584 0.031542405
000320 cf 7d d4 bc 40 29 82 bd cc a7 38 3d 50 5b b4 3d
       -0.025938896 -0.06355524 0.0450819 0.08806479
000330 ad 7f 93 bd 9b 2d 07 3b 62 a8 43 bc c0 d7 e0 3c
       -0.072020866 0.0020626548 -0.011942001 0.027446628
000340 30 5e a8 bd 86 10 55 bd c1 b0 5b bd 3f 72 3d 3c
       -0.0822109 -0.05201771 -0.053635363 0.011562883
000350 08 da b3 3c 34 46 27 3b 73 36 86 3d 70 b4 80 bd
       0.021954551 0.0025524022 0.06553354 -0.06284416
000360 9a 0d a4 3c 37 66 b2 bc 1b 2c 7c bd 4f ee 9f 3d
       0.020026017 -0.021777255 -0.0615655 0.07809126
000370 2a 7d f0 bc 1a b5 2f 3d 09 4e ad 3d 93 5b 03 3d
       -0.029356558 0.04289732 0.0846215 0.032069754
000380 bf f1 ad bc 83 26 b4 3d 85 b9 5c bd 0b 63 88 ba
       -0.021233438 0.08796408 -0.053887863 -0.0010405494
000390 62 38 83 bd 9b f6 0e 3d 18 bf 71 bd 88 66 08 3d
       -0.064072385 0.03490315 -0.05902013 0.033300906
0003a0 88 32 60 3c f3 06 02 bd 60 dd 62 3b 96 2e d1 3d
       0.013683923 -0.03174491 0.0034616813 0.10213964
0003b0 23 73 82 3d 88 a9 8b bd e9 12 59 bd 31 80 fc bc
       0.06369617 -0.06819445 -0.05299655 -0.030822845
0003c0 55 f9 8e 3d 43 60 06 3d 7a 3b 94 3d 6b 45 02 bb
       0.0698115 0.032806646 0.07237907 -0.0019877802
0003d0 ec d4 a1 bc 88 0a 89 bd b0 b0 9f bd 53 c5 0b bd
       -0.01975485 -0.06691462 -0.07797372 -0.03412373
0003e0 35 01 c2 3d 7b 04 4b 3d c7 8b 89 3d dd f9 95 3c
       0.094728865 0.04956482 0.067161135 0.01830762
0003f0 3e 57 4d bd ca 85 e3 3b 11 cc 9b bd 2e 43 93 3d
       -0.05013203 0.006943439 -0.07607282 0.07190548

bias f4 [32]
000000 93 8a 33 3c e5 5c bd bd 01 9b e3 3b e0 ae bd bc
       0.010958332 -0.09246234 0.006945968 -0.023154676
000010 4e df be 3d 1d 6f c7 3c 47 b2 c1 3d 4d a9 9a bd
       0.09319936 0.024344975 0.09457832 -0.07551823
000020 bc 46 ee 3d b0 39 85 bd 14 7e 2e 3d c6 4c aa 3d
       0.11634585 -0.06505144 0.042600706 0.083154246
000030 33 66 1a be 07 92 f2 3d f0 ff 17 be ab c7 8c 3d
       -0.15078048 0.11844259 -0.14843726 0.06874021
000040 df a5 9d 3d 7a b2 5d 3e cd 6a 5a bd 69 1a 30 3d
       0.07697653 0.21650115 -0.05332451 0.042993937
000050 dc c6 35 3e 61 f7 81 3d 9b 5d 3d bd cd 50 c2 3b
       0.1775164 0.06346012 -0.046231847 0.0059300424
000060 90 e5 40 3e 50 5a 37 bd e8 d3 9d 3d 93 42 93 3d
       0.18837571 -0.044763863 0.077064335 0.071904324
000070 65 cb 90 bc 67 37 c2 3d 5b 7c 46 bd e0 4a 3b bd
       -0.017675111 0.094832234 -0.04845844 -0.045725703

weight f4 [1, 32]
000000 a4 a1 12 be 1d 43 51 be 55 24 53 bc e3 5c 1b 3e
       -0.14319474 -0.20435758 -0.01288708 0.15172152
000010 6f 3a 2c 3e 23 62 56 3d 78 ff 1d 3e 28 d7 01 3e
       0.16819166 0.052339684 0.15429485 0.12679732
000020 f4 1f 31 be 55 b6 87 bd 04 ab 86 bc 19 d1 2b 3e
       -0.17297345 -0.06626574 -0.016438968 0.16778983
000030 ea 41 92 be 7c 27 09 3f 06 1d 86 be be c8 bd 3d
       -0.28565913 0.53575873 -0.26194018 0.09266804
000040 c7 68 75 3e 6a fb e1 be d6 74 65 bd a1 e4 b1 bd
       0.2396575 -0.44137126 -0.056019627 -0.08686186
000050 94 09 a2 be ce 65 a3 3e d0 2d b6 bd 71 45 0d 3e
       -0.31647933 0.31913608 -0.08895457 0.13796021
000060 c1 11 ab be c5 f0 ba 3b f8 cd 4b be d7 f2 3d be
       -0.33411983 0.0057049715 -0.1990279 -0.18549667
000070 75 a9 30 be 3c b9 ca 3e 3e 38 10 3e 57 6c af bd
       -0.17252143 0.39594448 0.14083955 -0.08565586
