saved_model/trained_model.pt (torch_old, 243170 bytes, 9 tensors)

weight f4 [6, 1, 5, 5]
000000 91 37 04 3e b6 e9 23 3e a5 d8 aa be ae 35 58 3e
       0.12911822 0.16007122 -0.33368412 0.21114227
000010 2b d6 19 bd c7 cc 4d 3d 66 a4 bd 3d af 78 8b be
       -0.037557762 0.05024412 0.09259872 -0.27240512
000020 97 70 4b 3e 2f a3 59 be 24 1e ae 3c 59 0f bb bd
       0.19867168 -0.21253656 0.021254607 -0.09133787
000030 ca 5e 8d bd c3 ee ad 3e 90 3a de bd 9b 49 b2 bb
       -0.06902845 0.33971223 -0.10851014 -0.0054409034
000040 6b 89 ed bd 88 04 9a 3d e2 ef a0 3e 7c 08 75 be
       -0.11598476 0.075203955 0.31433016 -0.23929018
000050 d8 89 c7 bd 68 78 18 bd 29 6e 8e bd f8 01 8f 3d
       -0.097430885 -0.037224203 -0.06954605 0.069827974
000060 18 02 a1 bd e0 8f 02 3e 5b 49 25 39 d3 f0 c7 bd
       -0.078617275 0.12750196 0.00015762953 -0.097627304
000070 ac bf 89 be 22 14 86 bd 37 44 2a 3e d2 9b aa bd
       -0.26904047 -0.06546809 0.16627584 -0.083305016
000080 fd 7e 7f 3e 75 10 09 3e 71 0a 12 3e 49 39 8b bd
       0.24950786 0.13385184 0.14261796 -0.06798036
000090 c2 cf af 3d 0e 41 c9 bd d2 2d 20 3e 10 7f 1b be
       0.085845485 -0.09826861 0.15642479 -0.15185189
0000a0 80 22 8c bd b1 65 58 3e 72 43 7f 3c c2 95 a7 bc
       -0.06842518 0.21132542 0.015580045 -0.020457152
0000b0 5c f2 64 3e a9 b0 6a 3e f8 e7 5c 3d 9e ad 8e 3c
       0.22358078 0.22918953 0.05393216 0.017416772
0000c0 24 84 8e bd 92 5b 5f be f5 33 dc 3b 7c b5 61 bd
       -0.069587976 -0.21812275 0.006720061 -0.055104718
0000d0 21 c3 06 be 21 75 e9 3d e3 29 0a 3e 25 f0 9b 3d
       -0.13160373 0.11399294 0.13492541 0.07614163
0000e0 5f 05 4e 3e 46 bf 2a 3c 29 9f 0c 3e e3 73 ac bd
       0.20119236 0.01042158 0.1373259 -0.08420541
0000f0 12 32 02 be fc be 1a be 9a 62 38 be b0 9e b7 3c
       -0.12714413 -0.15111917 -0.18006364 0.022414535
000100 24 b4 9b bc e9 d8 41 bd c2 1c 04 be c8 2b 30 be
       -0.019006796 -0.047326002 -0.12901595 -0.17204201
000110 8b db 37 be b6 41 c0 3b f1 b7 d7 bd 70 c0 33 3e
       -0.17954843 0.0058672084 -0.10533131 0.17553878
000120 db 38 6c 3d 97 6c 02 3e 88 a4 ee bd 2b 39 c9 bd
       0.05767141 0.12736736 -0.116524756 -0.09825357
000130 f1 06 0f 3e 61 8e dd bc 24 25 ba bd 3a ee f5 3d
       0.13967492 -0.02704543 -0.09089115 0.12008329
000140 11 58 2b be ac 0c b2 3b c5 31 a9 bd 2c 15 20 3e
       -0.16732813 0.0054336395 -0.08261446 0.15633076
000150 06 93 ac 3c 39 86 27 bd 6b f6 95 3d 72 bc c7 3d
       0.0210662 -0.04089949 0.07322391 0.0975274
000160 f9 7a 38 bd ba 32 bd 3c 00 6b 00 3e 84 31 25 3d
       -0.04503915 0.023095477 0.12540817 0.040330425
000170 12 00 42 bd 7e be b6 bd cf df bb 3d 56 f2 2e be
       -0.04736335 -0.08923052 0.091735475 -0.17084631
000180 eb 70 b2 bd 8a 9b 2a 3e 70 92 b0 bd 35 d1 70 be
       -0.08712944 0.16660896 -0.08621681 -0.23517306
000190 26 64 9a 3d 47 76 9c bd ee 73 63 bd 07 ee 90 bb
       0.07538633 -0.07639747 -0.05553048 -0.0044229063
0001a0 2a 25 c3 bd 41 12 ad bd 25 cb 37 3e 72 97 3f bd
       -0.09528573 -0.08450747 0.17948587 -0.04677529
0001b0 6f 80 60 bd 26 f8 c9 3d 09 12 3c 3e 89 bd c5 3d
       -0.054809984 0.09861784 0.18366255 0.096552916
0001c0 c1 c8 fe 3d af 5c d1 bd f9 30 b4 b9 38 88 40 be
       0.124406345 -0.10222756 -0.00034368763 -0.18801963
0001d0 11 36 d7 bd ea 52 60 be 3d 54 d4 3d e7 36 c9 3d
       -0.10508359 -0.21906629 0.1036763 0.09824925
0001e0 27 8f 64 be a6 4a 24 bd b5 84 09 3e ee d6 15 bd
       -0.22320233 -0.040110253 0.1342953 -0.036581926
0001f0 b8 f8 fd 3d 03 e5 03 3d 4b dd 87 be 32 96 92 3a
       0.12400955 0.032200824 -0.2653602 0.0011183678
000200 8d 6b b8 3d 22 fb a0 3e 4d df 03 3e 50 99 81 be
       0.09004889 0.314416 0.12878151 -0.2531228
000210 72 76 6c be 7c 87 18 3d 15 49 c4 3e e5 dd f7 3d
       -0.23092058 0.037238583 0.38337007 0.1210287
000220 6d 59 57 be bc 80 b0 be c1 e5 15 3e c1 dc a8 3e
       -0.21030207 -0.34473217 0.14638425 0.32980922
000230 70 5e 91 3d ee 30 39 be b1 ce 30 be 89 7f 9d 3d
       0.07098091 -0.18085071 -0.17266347 0.07690341
000240 d2 cd 8c 3e a0 50 d8 bc 74 8a 6f bc a3 77 94 ba
       0.27500778 -0.026405632 -0.014620412 -0.0011327158
000250 a9 99 03 be 93 3c 5a 3e
       -0.12851585 0.2131217

bias f4 [6]
000000 d5 1d 6b 3d f3 3d 72 3c ef 61 52 3e 94 0e d8 3d
       0.057401497 0.014785278 0.20545171 0.105496556
000010 76 2b 2f 3d 23 3a e8 3d
       0.042766057 0.11339214

weight f4 [16, 6, 5, 5]
000000 08 d0 a5 bc ca 44 7f 3b f0 39 b0 3c d1 ad 5f 3d
       -0.020240799 0.0038950914 0.021512002 0.054609124
000010 6e ac 6f bd 3e 02 a3 3d e8 97 fc 3b 1f ca 9b bd
       -0.05851405 0.07959412 0.0077085383 -0.07606911
000020 9e 36 30 bd f7 83 41 bc 1c ac dc bc 95 ab 82 3d
       -0.043020837 -0.011811248 -0.026937537 0.06380383
000030 81 85 22 bc 5f ad 89 3d 22 7e 22 3d 06 bc 39 bd
       -0.009919525 0.06722521 0.03967107 -0.04534533
000040 16 db d5 bc c7 e0 83 3c 59 8d 85 bd 61 a3 a2 bd
       -0.026105445 0.016098393 -0.065211006 -0.07941318
000050 0b 19 1f bc 9c a7 97 bd b7 ba 9e bd 77 87 5a 3d
       -0.009710561 -0.07405016 -0.07750457 0.053351846
000060 e3 54 26 3d 98 73 92 3d 00 a1 9b bc 68 4e 96 3b
       0.040608298 0.07150954 -0.01899767 0.0045869835
000070 bd 92 9c bd 9f f1 a6 bd 68 9e a8 3c dd 98 9a 3d
       -0.076451756 -0.08151554 0.020583346 0.075486876
000080 16 1f 4e 3d a3 56 81 3d b8 50 b6 3c bf 10 57 bd
       0.050322615 0.06315353 0.022255287 -0.052506205
000090 7a 2c f5 ba 84 0a 83 3d a8 92 3d 3c d4 d7 80 bd
       -0.0018705272 0.0639849 0.01157061 -0.06291166
0000a0 7d 63 c8 bb bc 19 b4 bc 04 39 31 bd 52 a5 52 bd
       -0.0061153756 -0.021984927 -0.043267265 -0.051427193
0000b0 c0 8a 4b 3d 1f a7 67 bd 91 db 48 bd 6c 20 48 3d
       0.04969287 -0.056555863 -0.04903752 0.048859045
0000c0 95 0a b5 bb 57 1d 70 bd f0 e1 7d bd 5a 07 98 bc
       -0.005524943 -0.05862173 -0.06198305 -0.018558193
0000d0 3e f7 73 bd 89 db 51 3d 7f 73 2b bd ab bd ff 3a
       -0.05956196 0.051234756 -0.041858193 0.0019511482
0000e0 75 d4 76 bc 5d ad 91 3c 4d 7c 85 3d 2c b6 5b 3d
       -0.015065302 0.017782861 0.06517849 0.05364053
0000f0 57 0e 85 bd 8a 69 64 3d d8 e3 02 3d 90 19 9a bd
       -0.06496876 0.055764712 0.03195557 -0.07524407
000100 5e 43 f4 bc af e1 9f 3d 64 9c a1 bd 73 8e 91 3d
       -0.02981728 0.078067176 -0.07891157 0.07107248
000110 e5 00 f0 bb 4f 5b 03 3d 1a 53 a8 bd 17 cd 4d 3d
       -0.0073243254 0.0320695 -0.08218975 0.050244417
000120 8e a4 1b bc 8b ab ed 3c a8 8c 14 3c b6 4a 9a bd
       -0.009499682 0.029012462 0.009066738 -0.07533781
000130 2a 10 c4 bc fa 83 ec bc 6d f7 9b bd 16 8b 0d 3d
       -0.023933489 -0.028871525 -0.07615552 0.03455647
000140 14 ec 88 3b 13 c1 9c 3d 02 95 c1 3c b8 83 13 3d
       0.0041785333 0.076540135 0.023630623 0.03601429
000150 f0 af b1 3c 54 52 10 3d 98 94 96 bc 62 fa b6 bc
       0.021690339 0.035234764 -0.018381402 -0.022336189
000160 d8 a4 5a bd 07 63 5d bd 44 00 69 bd b7 20 1e bd
       -0.053379864 -0.054049518 -0.05688502 -0.038605418
000170 30 b9 a5 3c 5b 3a 96 3d 94 31 5c bd a1 d6 95 3d
       0.020229906 0.07335349 -0.05375822 0.07316328
000180 72 9d 14 3d de 00 58 bd 34 8f b5 3c d5 49 90 3d
       0.036282964 -0.052735202 0.022163011 0.07045332
000190 56 f5 41 3d 21 de 80 3b e8 d2 7b 3d d7 dd 8a 3d
       0.04735311 0.00393273 0.061480433 0.06780594
0001a0 cd de 54 3c b6 75 8d 3d 7c 0d 95 bd dc 2c 0d 3d
       0.012992573 0.06907217 -0.072779626 0.03446661
0001b0 f0 ac 78 bd 2c 8c 9b bd 08 7e c2 bc 20 c2 9e 3d
       -0.0607118 -0.07595095 -0.023741737 0.0775187
0001c0 ee 02 16 bd e7 62 30 3d 87 c8 83 bd d6 80 92 3b
       -0.036623888 0.04306307 -0.06434732 0.004470925
0001d0 2d ea 98 bd ac a5 94 3b 58 99 86 3c aa 06 1e 3c
       -0.074665405 0.004536351 0.016430542 0.0096451435
0001e0 68 67 79 3c 4d 27 6d bd ef 46 47 bc d2 85 dc 3c
       0.015222408 -0.05789881 -0.012162908 0.02691928
0001f0 98 45 58 3d ba 75 9e 3d 70 4e 60 3d 94 ff ef 3b
       0.052800745 0.07737298 0.054762304 0.0073241685
000200 3b 74 16 3d 9a b0 71 3c cb c6 68 bd 0a fe 89 3d
       0.03673194 0.014751578 -0.05683021 0.06737907
000210 5c 66 f8 bb 12 9c 75 3d 4d 74 68 bd ec c1 69 bd
       -0.0075805616 0.059963293 -0.056751538 -0.057069704
000220 b7 e5 b8 3c 27 01 a3 bd c8 2c c3 bc 77 46 8a bd
       0.022570474 -0.07959204 -0.023825064 -0.06751721
000230 20 39 37 3d 5f e3 43 bd 0f 88 9b 3d 98 e7 30 3d
       0.044732213 -0.04782426 0.075943105 0.043189615
000240 b4 05 04 bd af 21 91 bd 45 fc 0a 3d 76 42 e1 bc
       -0.032232 -0.07086503 0.03393199 -0.027497511
000250 1c e6 42 bd df cc a4 bd f1 d3 ba bc f5 91 67 bd
       -0.04758273 -0.080468886 -0.02280614 -0.05653568
000260 cd 9c 0e bd 40 c1 00 bd fb 7a 9c 3c d4 9b 71 bd
       -0.034817506 -0.031434298 0.01910161 -0.0589865
000270 57 be 6e 3b 77 02 fa bc 7b a7 13 3c 6d b7 96 bd
       0.003642937 -0.030518753 0.009012098 -0.073592044
000280 58 d3 98 3d a8 99 86 3d 54 4e 42 bd c1 b9 fe 3b
       0.074621856 0.06572276 -0.04743798 0.0077736084
000290 a4 e2 12 bd db 63 64 3c b8 62 8e 3d 11 a1 ee 3c
       -0.035860673 0.013939823 0.06952423 0.029129537
0002a0 29 62 64 bd 14 ee 85 3d 6e f6 81 3d 00 01 9d bd
       -0.055757675 0.065395504 0.06345831 -0.07666206
0002b0 2c 0e b5 3c eb 07 8e 3d 3a 7e a5 3b 3f 70 8d 3d
       0.022101484 0.06935104 0.005050448 0.06906175
0002c0 99 fe d2 3c 65 e1 90 3d dd ff 95 bd 14 db cd 3c
       0.025756167 0.070742406 -0.07324193 0.025128879
0002d0 0e bb 91 bc 95 c8 57 bd 49 0b 9b 3c 56 7c 2b 3d
       -0.01778939 -0.052681524 0.01892628 0.041866623
0002e0 00 3d 7c bd 9b cb bb 3c f5 13 4b bd 7d 56 92 3d
       -0.06158161 0.022924235 -0.04957958 0.071454026
0002f0 4c 55 88 3d 4f 2a 58 bd dc 42 81 bd 8d 3b 8d bc
       0.06656894 -0.052774724 -0.063115805 -0.01724031
000300 f4 1b 84 3b 59 22 98 bc 09 61 12 3d 9f af ef 3b
       0.0040316526 -0.018571066 0.03573707 0.007314637
000310 55 0d c0 bc 80 c8 55 bd b9 f3 8c 3d ff c8 12 bd
       -0.023443857 -0.052193165 0.06882424 -0.035836216
000320 b9 26 4c bc b0 29 8e bd 7e 95 0d 3d 19 12 3b bd
       -0.012460404 -0.06941545 0.034566395 -0.045671556
000330 09 b5 99 3c bb f3 80 bd fd 04 d2 bc 98 3b 48 bd
       0.018763082 -0.06296488 -0.025637144 -0.048884958
000340 d7 f4 48 bc e2 d3 f0 3c 05 58 89 bd 3f 97 56 bd
       -0.012265406 0.029397909 -0.067062415 -0.052390333
000350 1c 1b 4d bc 45 9f 90 3d 10 61 6c bc c5 e5 fc bb
       -0.01251867 0.07061628 -0.014427438 -0.0077178204
000360 de fe fd 37 51 63 ec 3a 16 e9 9c bd af 37 51 bd
       3.0278632e-05 0.001803497 -0.07661645 -0.051078495
000370 09 3a e8 3c 90 04 bf 3c 42 11 89 bd 62 fe 38 bd
       0.028347986 0.023317605 -0.06692745 -0.045164473
000380 72 7e 01 3d 04 a8 79 3d f3 71 86 3d b5 48 42 bc
       0.03161473 0.060951248 0.06564703 -0.011858155
000390 88 e6 48 3d c4 c5 41 3c f6 30 0d 3d eb 0b c2 3c
       0.049047977 0.011826936 0.03447052 0.023687324
0003a0 69 1f 94 bc f2 25 61 bc 32 c2 af 3c c9 79 b2 bc
       -0.018081384 -0.013741957 0.021454904 -0.021786587
0003b0 47 43 7e 3d 24 c2 09 3d 38 4b 0e bd 65 44 b9 3c
       0.06207588 0.033632413 -0.034739703 0.02261562
0003c0 71 05 98 3c cf 55 1c bd fb e6 7a 3d 0c ca df ba
       0.018557282 -0.03816777 0.061255436 -0.0017073764
0003d0 ac c2 d5 bc cf 62 84 bd 2e 37 9c bd 4a 97 03 3d
       -0.026093803 -0.06464159 -0.07627712 0.032126702
0003e0 ad f1 83 bc b6 b0 73 3c c2 08 59 3c 8f 9d e1 3a
       -0.01610645 0.014873674 0.013246717 0.0017213094
0003f0 6d a8 86 bd c0 a4 91 bd 02 19 02 bc a8 f5 62 3d
       -0.065750934 -0.07111502 -0.007940533 0.055410057

bias f4 [16]
000000 ce 5a 85 bd 6a 43 d9 3c 55 1b 2d bd b5 04 11 bd
       -0.0651146 0.026521403 -0.042262394 -0.03540488
000010 3f 55 d1 bc 04 1d 5c 3d c5 09 fb 3b a5 56 1d 3e
       -0.025553344 0.05373861 0.0076610767 0.15365084
000020 f3 5f 8e 3d 67 5f e5 3d 1e f1 b1 bd e3 b5 d3 bc
       0.069518946 0.11199837 -0.086885676 -0.025843566
000030 f6 cd 13 be 1d 48 b5 bc db 13 67 bc 76 dd 92 3d
       -0.14434037 -0.022129113 -0.014103855 0.071711466

weight f4 [128, 400]
000000 89 d2 47 bd 39 38 26 3d 11 03 86 bc c3 e3 90 bc
       -0.048784766 0.04058096 -0.016358884 -0.01768673
000010 af e4 9a bc 03 82 29 3d f7 60 29 bd 0d 4f 5f bc
       -0.018907873 0.041383754 -0.04135224 -0.013629687
000020 fc c6 80 3b 91 45 b5 3c 04 c2 40 bd dc aa ed 3c
       0.003929971 0.022127898 -0.047060028 0.029012136
000030 7d 10 38 bc 70 0e 36 bc 07 46 d5 3c f7 4e c7 3b
       -0.0112344 -0.011111841 0.026034368 0.0060824114
000040 9d d2 33 3c 80 41 4f bc 34 94 1d bd 98 72 0e bd
       0.010975507 -0.012649894 -0.038471416 -0.034777254
000050 67 f8 d7 3c 57 6c f4 3c 23 03 87 bc ad 31 ee bc
       0.026363565 0.029836817 -0.016480988 -0.029076422
000060 03 2a d5 bb c5 70 fd 3c d6 17 06 bd 08 36 4b bd
       -0.0065052523 0.030937562 -0.032737575 -0.049612075
000070 01 9c 9b 3c c2 d8 26 bd 5a d9 42 bd 5b 76 b2 bc
       0.018995287 -0.04073406 -0.047570564 -0.021784952
000080 5d 62 a2 bb 3b 3c 16 3c b4 29 79 bc 51 6a dc bc
       -0.0049555735 0.0091696335 -0.015207697 -0.026906164
000090 bc 84 be 3c d4 26 32 bd 24 cf d9 3c ee 14 0a bc
       0.023256652 -0.04349406 0.02658803 -0.008427842
0000a0 f2 b7 37 bd 30 5d 7c bc c4 6a ee 3c cf ff 91 3c
       -0.04485316 -0.015403077 0.029103644 0.017822174
0000b0 6c 0b 17 3c 36 c5 2f bd ad 89 9d 3b b0 c5 1f bd
       0.009219032 -0.042912684 0.004807672 -0.03900689
0000c0 ef 2f d7 bb bd c1 0a 3d 39 e1 66 3c 47 44 6c 3d
       -0.0065669934 0.03387617 0.014091783 0.0576823
0000d0 d2 72 85 bc 90 a1 0a bd f5 6d 56 bc 7b 3d 80 bb
       -0.016290102 -0.033845484 -0.013087739 -0.003913579
0000e0 e8 74 12 bd c7 03 eb 3c 79 e5 14 3d b1 83 9f bc
       -0.03575602 0.028688325 0.036351655 -0.019471975
0000f0 89 7a 13 3d 03 0a f3 bb fa 81 b0 bc 31 eb 35 3d
       0.03600553 -0.007416965 -0.021546353 0.04441375
000100 7f dc 55 bc dd 2d f1 3c 79 de 1c bd 43 77 16 3d
       -0.013053059 0.029440815 -0.038298104 0.03673483
000110 c4 6d 05 3d e3 dd 58 bd b6 93 43 bd cb 47 24 3b
       0.032575384 -0.052945983 -0.04774829 0.0025067206
000120 a4 2b 43 bd 42 72 54 3c 07 56 03 bc 9b a7 30 3c
       -0.04764904 0.012966694 -0.008016116 0.010782148
000130 73 5f 32 bb 37 42 5f 3d 3f a3 2d 3c c5 ed be 3b
       -0.0027217537 0.054506507 0.010598003 0.005826684
000140 6d da cc 3c c3 b5 15 3d a5 31 a9 bb db ca 1d bd
       0.025006497 0.036550295 -0.005163389 -0.038523536
000150 9f e9 0e bc 16 3d 9c bc f8 a8 15 3d bf c7 4b 3c
       -0.008722692 -0.019072097 0.036538094 0.01243776
000160 34 3b 10 3d fd 20 dd bb eb 07 c0 3c 75 26 81 3c
       0.03521271 -0.0067483173 0.023441276 0.015765408
000170 a1 fd 73 bb fd e7 a4 3c e4 72 3d bc a1 44 4c bb
       -0.0037230032 0.020130152 -0.011563037 -0.0031168836
000180 ae 18 ea bc 42 7f 03 3d fa 24 4d bd dc 67 5f bc
       -0.028576221 0.032103784 -0.05008409 -0.013635602
000190 62 13 e1 3c 84 47 01 bd 29 29 05 3c e7 fa e3 bb
       0.027475063 -0.031562343 0.008127489 -0.0069574
0001a0 e2 4f 1c bd 95 3f 27 3c 58 ff a3 3c 1b ed 61 3c
       -0.03816212 0.01020803 0.020019218 0.0137894405
0001b0 cb 4e 41 bd 27 8b 3a 3d 81 02 f4 bb a3 49 2b bc
       -0.047194283 0.045542862 -0.0074465876 -0.010454568
0001c0 c2 d3 9f 3c 40 24 f6 3a a5 b8 3d bd 8b 5e f2 bc
       0.019510154 0.0018779114 -0.04631867 -0.029586097
0001d0 19 49 0f 3d 2c 3a 57 3c 4b 53 0d bd cb 9f b4 bc
       0.03498182 0.013136428 -0.034503262 -0.022048851
0001e0 d5 94 9b 3c 22 b8 0c bd 44 1d 5a 3c 9f a4 10 3c
       0.018991867 -0.03435529 0.0133126415 0.008828311
0001f0 3c bc 23 3d d5 02 14 3d 81 4f ce bc 36 31 2c bd
       0.039974436 0.036135513 -0.025184395 -0.04203912
000200 25 83 22 bd e3 e6 df bb f0 6d dd bb e8 0e 2b 3c
       -0.03967585 -0.0068329438 -0.0067574903 0.010440566
000210 92 d7 b1 3c dd b6 1b 3d 71 2f 2d 3d 3a 4c 83 3c
       0.021709237 0.03801619 0.04228157 0.016027559
000220 fa e4 ee 3c b6 cd 48 bd 54 45 66 3c 04 07 3f bd
       0.029161919 -0.049024306 0.014054615 -0.04663755
000230 88 9d 2c 3c cc d0 99 3c 62 4e 04 bd e8 7d d7 3b
       0.010535605 0.01877632 -0.032301314 0.0065762885
000240 62 89 d8 3c fa d4 1f bd 9d 50 83 bc 9e 91 d6 bc
       0.026432697 -0.03902147 -0.01602965 -0.026192483
000250 57 00 99 3c c0 89 18 bd 15 c0 4b 3d 5e 3a dd 3c
       0.01867692 -0.037240744 0.04974373 0.02700537
000260 a7 e7 43 bc d8 51 db 3c 3d 3d 0d bc 2d b4 d8 bc
       -0.011957086 0.026772425 -0.008620557 -0.026453102
000270 68 71 0b 3c c0 22 0a 3d 19 6c 56 3c b9 05 0f bd
       0.008510925 0.033724546 0.013087296 -0.034917567
000280 4d 7f 80 bd d6 51 1f 3d e9 6e 61 bc b4 23 4d bd
       -0.06274281 0.038896404 -0.013759353 -0.050082877
000290 3b 57 07 3d f0 3f 69 bd ec a9 72 3c 9d 1d 34 3d
       0.033042174 -0.05694574 0.01481102 0.043973554
0002a0 b4 2d 19 bd 6e 8f 1d bd 6a 49 bc 3c bd c6 96 3c
       -0.0373971 -0.038466863 0.022984225 0.018405313
0002b0 98 85 db 3c fa 82 68 3c f5 c1 18 bd 5c 1e df bc
       0.0267971 0.0141913835 -0.037294347 -0.027236156
0002c0 b3 c0 22 bd a3 31 d1 3c 3d ec 1f 3c ad 70 fd bc
       -0.039734554 0.025536364 0.009760913 -0.030937517
0002d0 1e f2 4f bd 63 a3 91 bb 15 e2 b8 3c e7 f4 85 ba
       -0.05076801 -0.004444526 0.022568742 -0.0010220081
0002e0 a3 b2 43 bc 85 83 3e bd 1e 6b 1f 3c a9 d8 be bc
       -0.011944446 -0.046512146 0.009730129 -0.023296671
0002f0 e3 46 29 bd 9b ed a3 3a e9 ea 1b bd 93 fd 0f bd
       -0.04132737 0.0012506725 -0.038065825 -0.035153937
000300 e1 5a 35 bd 50 ea a3 bc e3 ee 14 3b ae b7 0c 3d
       -0.044276122 -0.02000919 0.0022725395 0.034354858
000310 fc f8 f3 bc ab 91 1f 3d 32 f8 0b 3c f7 c1 82 3b
       -0.029781811 0.03895728 0.008543061 0.0039904076
000320 af 90 a1 3c b0 e9 0a bd 2d ee 41 bd f5 18 b6 bc
       0.01972231 -0.033914268 -0.047346283 -0.022228697
000330 e2 05 32 3d fc 4b c0 3c be fe 73 3c 3e 83 e4 bc
       0.04346264 0.023473732 0.014892278 -0.027894612
000340 0c 6c 43 bd 7c f5 8a bc b4 08 83 bc e0 af 35 bd
       -0.047710463 -0.01696276 -0.01599536 -0.04435718
000350 01 91 28 3c 9e 8b 2d 3c 5c 16 86 3b 81 a2 1c bc
       0.010288478 0.010592369 0.004092021 -0.009560228
000360 cb 4b 25 36 e6 d3 b1 bc 00 8d b8 3a a1 a7 ab bc
       2.4631033e-06 -0.021707486 0.0014080107 -0.020953955
000370 86 45 f1 bc 08 67 ef bc fc 46 ec bb 65 30 b3 3c
       -0.029452097 -0.029223934 -0.0072106104 0.021873662
000380 c1 fa 3b 3c 9e 62 5c bb e9 56 bf 3c ad 6a 5d 3c
       0.011473359 -0.0033628116 0.023356872 0.013514203
000390 3f 0b 38 bd 70 4c 1d 3c 7e 0d 34 3c 3c 36 d7 bc
       -0.0449326 0.009600744 0.010989545 -0.026270978
0003a0 2d 1b 31 3d 57 fc 2e bd 07 01 3d 3d f2 00 8c 3c
       0.043238807 -0.04272112 0.046143558 0.017090295
0003b0 b3 7b fb bc 69 72 32 bd c4 be 0a 3d f9 0e 3c bc
       -0.030698633 -0.04356614 0.033873335 -0.011478179
0003c0 1d 88 4c bd 01 b3 4a 3d c5 5f 16 3d 73 20 b9 bc
       -0.049934495 0.049487118 0.036712427 -0.02259848
0003d0 25 1f 63 bd 8b 51 d0 3b 7e d2 39 bc cb da b2 bc
       -0.055449624 0.006357377 -0.011341689 -0.021832844
0003e0 16 b9 47 3d 04 f4 e0 3c fd 64 3c bd 77 c0 1d 3c
       0.048760496 0.027460106 -0.045994747 0.009628407
0003f0 ee 37 04 3d 20 90 8a 3b 99 d4 d6 ba 67 f1 b6 bc
       0.0322799 0.004228607 -0.0016390263 -0.022331906

bias f4 [128]
000000 db fe 24 bc da a3 3a 3d 2b f1 06 3d 42 eb 01 3d
       -0.010070528 0.045566417 0.03294484 0.0317185
000010 75 5b 98 bc 22 df ad 3c dd fc 45 bb 28 28 36 3d
       -0.018598298 0.021224562 -0.0030210533 0.04447189
000020 68 8c d1 3a 0f 12 16 3d c0 47 18 bd f0 59 94 3d
       0.0015987279 0.036638316 -0.0371778 0.07243717
000030 bd c5 69 3d 03 f1 01 bc 53 a2 cb 3c a4 51 29 3d
       0.057073344 -0.007930997 0.024857676 0.041337624
000040 6d 46 ea bb 33 28 98 bb 53 27 a8 bd 77 5c 87 3c
       -0.0071495087 -0.004643464 -0.082106255 0.016523583
000050 44 d8 19 3d a4 7a 91 3d d3 80 fb 3b 21 67 f4 3c
       0.037559763 0.0710347 0.007675269 0.029834332
000060 4e 49 13 bb 9e e8 65 bd 8a 2b 39 bd 13 4c f1 bc
       -0.0022474113 -0.056130044 -0.045207538 -0.02945522
000070 8d 34 04 3c 37 13 38 bc 2d c6 4c 3d c6 74 38 3d
       0.00806917 -0.01123505 0.049993683 0.04503324
000080 d8 85 af 3c c6 67 72 3c d4 32 f2 bc 66 6d 90 3c
       0.021426126 0.014795249 -0.029565252 0.01763029
000090 8d 61 10 3c 35 b2 9f bc 4f e7 04 bd 94 21 70 3d
       0.00881232 -0.019494155 -0.032447156 0.058625773
0000a0 b7 19 82 3c 88 1f 67 bc d0 42 c1 bb 56 2a 13 3d
       0.015881402 -0.014106639 -0.0058978572 0.035929047
0000b0 f2 f7 1c bd e4 24 fc 3c bf a9 72 3c cc 3c 74 bd
       -0.038322397 0.03077931 0.014810978 -0.059628293
0000c0 98 c6 c9 3c 57 7f 3e 3d 9b fe 16 bd 58 30 0f bd
       0.02463083 0.04650816 -0.036863904 -0.034958214
0000d0 29 fb 4e bb 67 68 76 3a e8 67 66 3d 96 2c 14 3d
       -0.0031582809 0.00093997124 0.056251436 0.036175333
0000e0 89 cd e1 bc 41 c4 93 bc 54 2b 48 bd d3 00 22 bd
       -0.027563827 -0.018037917 -0.048869446 -0.039551567
0000f0 f3 7b 2a bd 53 97 a4 b9 93 02 8f 3d 86 76 87 bc
       -0.041622113 -0.00031393263 0.06982913 -0.016536009
000100 03 5f 88 3d 10 bf bd bc 04 45 a6 3d 35 97 15 bd
       0.06658747 -0.023162395 0.081186324 -0.036521155
000110 76 8c ce bc 20 57 0a bd 57 65 ef 3c e9 3f 11 bb
       -0.025213461 -0.033774495 0.029223127 -0.0022163338
000120 a7 e2 f4 bc 46 25 79 bc 73 37 40 3d aa 86 16 3a
       -0.029893233 -0.015206641 0.04692788 0.00057421124
000130 49 d0 eb bc 3d 3f 26 3d 80 3f eb bc f6 43 97 3d
       -0.028785842 0.040587652 -0.028716803 0.073860094
000140 01 e0 a2 3c ac 59 a0 bc aa 0b 1b 3d 72 7f 2a bd
       0.019882204 -0.019574009 0.03785292 -0.041625448
000150 8b 75 61 bc 29 18 97 3c 01 62 ff bc 50 b4 2a bd
       -0.013760935 0.018444138 -0.031174662 -0.041675866
000160 55 09 24 bd de a5 65 bb ed 07 41 3d 10 3c 43 bd
       -0.040047962 -0.0035041492 0.0471267 -0.047664702
000170 b8 d6 02 bc b8 02 cd 3c e7 3c b8 ba 2e b2 c1 3c
       -0.007985763 0.02502571 -0.0014056236 0.023644533
000180 ff ec 38 3c 15 f0 b8 3c 92 e9 bc 3c 37 db c2 bc
       0.011286973 0.022575418 0.023060594 -0.02378617
000190 48 ff e1 3a 1f 67 b7 bc f5 69 12 3d e2 b7 a9 bc
       0.0017242217 -0.02238804 0.03574558 -0.020717565
0001a0 e4 e5 24 3d 35 35 21 3d 38 4f 2a bd 3d ab 2a bd
       0.040258303 0.039357383 -0.041579455 -0.04166721
0001b0 6c bd 97 bc c6 01 24 3c a8 93 e6 3c 01 6b 82 3d
       -0.01852294 0.010010188 0.02814658 0.063680656
0001c0 52 f8 05 3d 24 d2 39 bd df 66 00 bd b3 56 e7 bc
       0.03270752 -0.04536642 -0.031348106 -0.028239584
0001d0 6a ee 2b bd d7 07 d5 3b 19 16 5c bd 27 a1 05 3d
       -0.041975416 0.0065011787 -0.05373201 0.03262439
0001e0 8a 18 af b9 e5 0f 80 3d 63 95 e5 3c 7c c7 77 3d
       -0.00033396884 0.06253032 0.028025335 0.060492977
0001f0 bd 49 f7 3c 73 f8 e4 3c 83 a1 40 bd cf 96 1c 3c
       0.030186528 0.027950501 -0.04702903 0.00955744

weight f4 [32, 128]
000000 96 e4 32 3d 37 c8 54 bd f8 2d 97 bc 20 77 a8 bc
       0.043675028 -0.051948752 -0.018454537 -0.020564616
000010 52 5f 67 3d 08 87 4e bc 60 ea 68 bb c0 c9 ac bb
       0.05648739 -0.012605436 -0.003554009 -0.005273074
000020 92 38 58 3d 80 b5 ac 3b 5d 9f 74 bd 9b 77 8d 3d
       0.052788325 0.00527066 -0.059722293 0.069075786
000030 70 f4 4c 3c 58 b1 12 3c 46 3b ae bd 78 fc 98 bd
       0.01250945 0.008953415 -0.08507399 -0.074700296
000040 04 4a 8d 3c 67 be 9e 3d 77 4f b3 bd 90 61 04 3c
       0.017247207 0.0775116 -0.08755391 0.008079901
000050 27 6a b3 bd 04 30 ae bd 47 7c 9f bd 90 da a8 bd
       -0.08760481 -0.08505252 -0.07787376 -0.082448125
000060 f0 b4 f7 3c 04 e2 91 bc b8 39 4c 3c 0c 5b ac bd
       0.030237645 -0.017807968 0.012464933 -0.08415803
000070 dc c1 5f bd 00 09 11 bb e8 ac 77 bd cf 6f 8e 3d
       -0.054628238 -0.0022130609 -0.06046763 0.069549195
000080 cf 93 04 bd 80 e1 0d bc 40 67 26 bc 0c f3 fd 3c
       -0.032367524 -0.00865972 -0.010156453 0.030999683
000090 09 b6 80 3d 60 af ef bb 98 dc 3b bc dc 06 9d 3c
       0.062847205 -0.0073146075 -0.011466168 0.01916831
0000a0 7e 6a 2b 3d b3 df 07 bd 5b 7b ab 3d f8 dc 35 3c
       0.041849606 -0.03317232 0.083731376 0.011100046
0000b0 cf 05 59 bd 38 ae 42 bc 97 41 a1 3d 20 93 25 3c
       -0.052984055 -0.011882357 0.078738384 0.010105878
0000c0 90 f7 36 bc 4b b7 0b bd e0 9f 4c 3b 36 d9 17 3d
       -0.011167422 -0.03411035 0.0031223223 0.037072383
0000d0 f6 0a 40 3d 54 05 f7 3c 90 5f 2c bd f8 cf 83 bd
       0.046885453 0.030153908 -0.042083323 -0.06436151
0000e0 8c 28 93 bc f0 01 92 bb fb 10 8d 3d 90 3d 67 bc
       -0.01796367 -0.0044557974 0.068880044 -0.014113799
0000f0 d3 7c a5 3d e7 48 98 bd a0 65 27 bc e8 63 ac bc
       0.08080449 -0.0743578 -0.0102171 -0.021043733
000100 f4 14 ef 3c fa 9f 9e bd 3e 0a 7f bd 6e 9d 6b 3d
       0.029184796 -0.07745357 -0.062265627 0.057523184
000110 26 a0 50 3d e6 07 6c bd 4c f5 a8 bd aa 4b 3b 3d
       0.05093398 -0.05762472 -0.08249912 0.045726456
000120 b2 2b 6c bd 4e 10 70 3d 72 25 08 3d d0 be 8d bd
       -0.05765886 0.0586093 0.033238836 -0.0692116
000130 6f ae 92 3d f8 9a eb bc 0e 77 54 3d e9 28 57 bd
       0.07162177 -0.028760418 0.051871352 -0.05252925
000140 a8 15 86 bd 44 44 ab bd 71 a5 13 bd 92 93 34 bd
       -0.06547099 -0.0836263 -0.03604645 -0.044086047
000150 07 88 20 bd b2 1c 60 3d 6c 5a b1 bc 5c b3 e5 3c
       -0.039192226 0.054714866 -0.021649562 0.028039627
000160 3c ad df 3c 82 a5 3a 3d c8 32 4f bc 24 ff cd 3c
       0.027304284 0.045567997 -0.012646385 0.025146075
000170 8b dc 30 bd 4d 10 ac 3d 00 ac d5 b9 48 a4 0e bc
       -0.043179076 0.084015466 -0.00040754676 -0.00870616
000180 e8 20 da 3c 4e 91 7b bd 46 5d da bc 35 7b b4 3d
       0.026627019 -0.06141787 -0.026655804 0.088125624
000190 75 06 49 bd e6 cc 66 3d e6 6f 0d bd e0 7e 24 3b
       -0.049078424 0.05634775 -0.034530543 0.0025100037
0001a0 85 54 ae bd ff a0 9d 3d b9 c4 97 3d 77 ae 91 3d
       -0.085122146 0.07696723 0.07410569 0.07113355
0001b0 be ca 1d 3d 36 57 4f bd f0 80 20 bd d3 90 44 bd
       0.03852343 -0.05062028 -0.039185464 -0.047989678
0001c0 f2 53 35 bd 48 9d 76 3c 9a df 55 3d 14 18 81 3c
       -0.04426951 0.015052147 0.052215196 0.015758552
0001d0 32 64 da bc 89 be 2a bd ee f9 a1 bd 87 a9 82 3d
       -0.026659105 -0.041685615 -0.079089984 0.06379991
0001e0 f0 6f ce 3c 92 c1 2e 3d 92 d9 f3 bc c0 68 79 bd
       0.02519986 0.04266507 -0.029766832 -0.060890913
0001f0 06 1d ae bd a1 0c 99 3d e0 9b 2d 3c a0 ea 8e bd
       -0.085016295 0.07473112 0.0105962455 -0.06978345
000200 fd 46 46 3c fc 70 08 bc 11 ec cf 3c b5 e0 a5 bc
       0.012101886 -0.008327719 0.02538112 -0.02024875
000210 72 c9 72 3d 15 db 47 3a 0a f7 9e bd 54 19 0b bc
       0.059274144 0.00076238933 -0.07761963 -0.008489925
000220 e1 27 b0 3d ab 1e 0a bd ba 58 6d 3d f5 ae 8a bd
       0.08601356 -0.033720654 0.057945944 -0.06771652
000230 fa 85 6e 3d 3e 30 5b bc 17 77 7d 3d 85 03 0f 3d
       0.05823324 -0.013378201 0.06188115 0.034915466
000240 f7 35 4a 39 32 76 8b 3d d9 f7 aa bd 39 41 27 3d
       0.00019284325 0.06809653 -0.083480544 0.040833686
000250 22 10 40 bd 8e 66 76 bd 6a 34 9c bc 92 15 1f bd
       -0.046890385 -0.060156398 -0.019067962 -0.03883893
000260 c9 2e 6d 3d 03 a9 a8 bd 30 8a eb bb 10 cc b5 3b
       0.057905946 -0.082353614 -0.007188104 0.005548008
000270 e7 3a 4d 3d 97 79 91 bd 19 6c a4 3a 21 f5 13 bd
       0.050105 -0.071032695 0.0012544423 -0.036122445
000280 da a3 98 bd 41 56 ef bc 3c c9 58 3d 5f a3 99 3d
       -0.07453127 -0.029215934 0.052926287 0.07501864
000290 d4 00 4a 3d 91 62 83 bd df b9 43 3d 82 d6 2c bd
       0.049317196 -0.064152844 0.047784682 -0.042196758
0002a0 10 ae 13 bc 9b 92 9f bd a6 dc 8c 3c 0c 79 2b bc
       -0.009013668 -0.07791635 0.017195057 -0.010465872
0002b0 5f 75 d4 bc 80 79 9a 3d f1 e8 b0 bd 30 2e 18 bd
       -0.025934873 0.075427055 -0.0863818 -0.037153423
0002c0 8e f4 33 3d 69 86 14 bd 09 3e 53 3d 4b 4f ae bc
       0.043934397 -0.036260996 0.051572833 -0.021278044
0002d0 13 c8 15 3d ec 0f 00 bd e3 12 4a 3d 3f 6d 98 3d
       0.03656776 -0.031265184 0.049334418 0.07442712
0002e0 a3 2b 61 3c d9 94 20 3c 7e 75 83 bd 7a 92 99 3d
       0.013743314 0.009801113 -0.06418894 0.07498641
0002f0 e0 08 8c 3c 41 0c c2 3c 08 6a 50 bd dd 74 29 bd
       0.017094076 0.023687484 -0.05088237 -0.041371215
000300 03 43 03 3c a8 25 9a 3c 1f a4 1f bc f8 73 7f 3c
       0.008011582 0.018816784 -0.009743719 0.015591614
000310 fd dc c2 bc c4 de d3 bc 1b dd 9d bd ce 7c f8 3c
       -0.023787016 -0.025863059 -0.07708188 0.030332949
000320 8f 29 c3 bc cf b9 a3 3d 76 2b 81 bd 32 05 32 bd
       -0.023823528 0.079944246 -0.06307118 -0.043461986
000330 1f 18 08 3d 1d ba 44 3d 95 94 dc bc 05 b1 9d 3d
       0.03322613 0.048029054 -0.026926318 0.076997794
000340 f0 cf 64 b8 14 c6 91 3d af e0 97 bd a4 b1 9b 3c
       -5.4553093e-05 0.071178585 -0.07415902 0.019005604
000350 5e b9 43 3d fd 21 e8 bc e4 88 70 3d a4 46 95 3d
       0.0477842 -0.02833652 0.0587243 0.07288864
000360 e9 a3 14 bd d6 29 1f bb 5a b7 52 3d a3 f5 ec 3c
       -0.03628913 -0.002428641 0.05144439 0.028925722
000370 b8 f2 3f bd b1 38 3f bb 06 5c 8b bd 7a b0 a7 3d
       -0.046862334 -0.0029178078 -0.068046615 0.08187957
000380 53 bb e5 3b 90 34 de 3c de 28 b4 bd 72 4f 25 bd
       0.007010856 0.027124673 -0.08796857 -0.040358968
000390 c3 a8 b7 bb d5 6f 85 38 92 9c 95 3d 8b af aa 3d
       -0.0056048348 6.3627645e-05 0.07305254 0.083342634
0003a0 f3 36 14 bd 2d 26 91 3c 77 ab 22 3d cc 44 29 3c
       -0.036185216 0.017718399 0.039714303 0.010331344
0003b0 1d 3d c7 bb fc 96 88 3d d2 69 a5 3d 19 7c 09 3d
       -0.0060802833 0.06669423 0.08076824 0.033565614
0003c0 20 63 bb bb b7 35 95 3d 51 5d 8b 3d 49 be a5 3d
       -0.0057186037 0.07285636 0.06804908 0.08092935
0003d0 db 3c 6c 3d 54 3c 3c 3d de be 5a bd 4b 72 83 3d
       0.057675224 0.04595597 -0.05340468 0.06418284
0003e0 b5 49 44 3d 14 92 50 3d be 71 78 bd a7 1b ee 3c
       0.047921855 0.05092056 -0.060655348 0.02906592
0003f0 b0 22 be 3b 54 60 10 3d c6 e1 1e 3d 4d 3e 9c bd
       0.005802475 0.035248116 0.038789533 -0.076290704

bias f4 [32]
000000 c7 e9 a8 bd 17 f8 73 3d 1a e0 58 3c c7 62 f0 3d
       -0.082477145 0.05956277 0.013237024 0.1173759
000010 24 61 ad 3c 8f 59 02 3e 70 20 63 3d a3 ae af 3b
       0.021164484 0.12729476 0.055450857 0.0053613945
000020 a1 ba f2 3d 22 cb 25 bd d7 4e 86 bc 36 57 a4 3d
       0.11852003 -0.040476926 -0.016395016 0.08024447
000030 41 77 c7 bb 97 98 31 bd d0 f9 eb 3d 70 bd e8 bd
       -0.006087214 -0.04335841 0.11522257 -0.11364257
000040 e4 9a 76 3d 62 4e c0 3d db 35 ab bd 6c 87 5f bd
       0.06020631 0.0938995 -0.083598815 -0.054572508
000050 b9 22 f4 3d d9 ce e2 bc da 70 8a bd 61 66 bc 3c
       0.11920685 -0.027686523 -0.06759806 0.022998037
000060 4a d4 cf 3d 21 96 5e 3d fd d7 a4 3d f7 ec 28 bd
       0.10147913 0.054342393 0.08049009 -0.041241612
000070 60 fa 08 3e fa 4e b8 3d fb ba ce 3d af eb 18 3c
       0.1337676 0.089994386 0.100942574 0.009333535

weight f4 [1, 32]
000000 1a 09 fe 3d bf 29 df bc b6 8f 15 3d 58 f8 85 3e
       0.1240408 -0.027241586 0.036514007 0.26166034
000010 b2 aa 1d 3e 45 9c ca 3e 39 a1 9b 3e 92 01 85 3e
       0.15397146 0.3957235 0.3039644 0.2597776
000020 68 cc cf 3e 4b be 1d be eb e7 6f bd aa d7 38 be
       0.40585637 -0.15404622 -0.058570784 -0.1805102
000030 f7 64 bd 3b 95 7d 2e 3e 53 9f 9c 3e e9 aa 7d be
       0.005779858 0.17040093 0.30590305 -0.24772228
000040 11 71 24 3d 14 7d ce 3e ae 65 2f be 55 3b b8 3c
       0.04014689 0.40329802 -0.17128631 0.02248923
000050 2f b7 ba 3e b5 c4 09 bc f7 31 1b 3e 36 50 60 be
       0.36467883 -0.008408715 0.15155779 -0.21905598
000060 1a 6a d6 3e b0 8c 9b 3e 92 9b 88 be 5d a4 b7 bd
       0.41877824 0.30380774 -0.2668119 -0.08966897
000070 67 72 a9 be ab ff 44 3e 92 94 60 be df 4c 27 be
       -0.33095095 0.19238155 -0.21931675 -0.16337918
