saved_model/trained_model.pt (torch_old, 243170 bytes, 9 tensors)

weight f4 [6, 1, 5, 5]
000000 bf c2 1f be ea dd 38 3d fa c9 d8 3c 02 dc a1 3e
       -0.15601633 0.04513351 0.026463497 0.31613165
000010 3a 74 07 be f6 00 98 be 61 d0 2b 3e c8 c8 ff 3d
       -0.1322793 -0.29688233 0.16778709 0.12489468
000020 68 ca 00 3e 7c 95 64 bc 00 26 43 bd b7 2e ec 3c
       0.12577212 -0.0139516555 -0.04764366 0.02883087
000030 dd 5f cf bd ac a8 88 3e c6 e9 cc 3c 3f 2d 39 3d
       -0.10125706 0.26691186 0.025013816 0.045209166
000040 25 26 54 3d 88 16 3d be c9 45 93 3e 31 e8 d2 bb
       0.05179419 -0.18465626 0.2876418 -0.006436371
000050 7f 6b 02 be b4 bf 30 3e 1b 28 f0 bd 23 dc 77 3e
       -0.12736319 0.17260629 -0.117263995 0.24205069
000060 58 f4 ed bd 38 79 cd 3d 44 a6 26 3e 9a 76 4b bd
       -0.116188705 0.10032886 0.16274363 -0.049673654
000070 46 a6 47 3c 79 62 9c 3d f8 11 9a ba fa 1a 28 3e
       0.012185639 0.0763597 -0.0011754623 0.1641654
000080 a9 7c 7a 3d a9 4d e5 bd ef 62 3e be 8d 1e 08 3e
       0.06115404 -0.11196453 -0.18592428 0.13292904
000090 70 0d b3 3d c4 9d 09 bd b9 63 04 be 52 6e c4 bd
       0.087427974 -0.033597723 -0.12928666 -0.095913544
0000a0 1f 0d fb bd db 56 9f 3d 7c b0 f2 bd c5 10 40 be
       -0.12258362 0.07780238 -0.11850068 -0.18756397
0000b0 e9 15 1e be e4 7c 34 be 0a e5 43 be 2b 4e 84 bb
       -0.15438046 -0.17625767 -0.1913034 -0.0040376387
0000c0 5c c1 2d bd 06 d3 86 3d 64 97 08 bd 9f f3 d5 3d
       -0.04242073 0.06583218 -0.033347502 0.10446858
0000d0 2f 84 17 3d bd 84 3b be 2b f4 85 3e 81 13 06 3e
       0.036991294 -0.18312354 0.26162848 0.13093378
0000e0 b8 e3 69 3c aa e4 eb bc ba 82 13 3e 6c d7 4e 3d
       0.014275484 -0.028795559 0.14405337 0.05049841
0000f0 fe 8e e9 3d 86 3b 9f 3d 3a 9a 2f bc a4 b5 07 bd
       0.11404227 0.07775025 -0.010717923 -0.03313221
000100 bd 80 72 3e 84 de 27 3e a5 99 b1 bc ca ce 87 3a
       0.23681922 0.16393477 -0.021679709 0.001036131
000110 0a f5 e9 3d 5e fd 00 3e 19 c4 8f bd 89 c5 b5 3d
       0.114236906 0.12596652 -0.070198245 0.088755675
000120 c9 e6 4a 3d 53 37 99 bd ae f8 ed 3c 8e 54 59 bd
       0.0495365 -0.074812554 0.029049244 -0.053059153
000130 84 ba 46 3e 77 0a 49 be 6d 18 84 bd 7b be 02 3e
       0.19407088 -0.19632898 -0.06449971 0.12767975
000140 2d f9 a1 3d 8a 35 15 3e 18 1a 99 be 1b 1d 1e 3d
       0.07908855 0.14571205 -0.2990272 0.038601976
000150 cb f2 8d 3d e5 e5 9b 3d ea 59 74 3e 8b b0 b1 be
       0.06931075 0.07612208 0.23862424 -0.34705004
000160 28 15 d6 bd 66 79 e1 3d 6b a2 83 bc 03 51 92 3e
       -0.10453254 0.11009483 -0.016068658 0.28577432
000170 ab 7f 94 be 5d e7 42 be bb 73 23 3e 0b 48 21 3e
       -0.29003653 -0.1903357 0.15962116 0.15750138
000180 fa 46 50 bc 66 b9 0a be 24 32 1d be 41 68 2f 3e
       -0.012712235 -0.13547286 -0.15351158 0.17129613
000190 c3 d6 28 3e 38 10 a7 3d ed ff 0c be 81 ef 43 bd
       0.16488175 0.0815739 -0.13769503 -0.04783583
0001a0 e1 6e 98 bd 23 7e 52 bd dd 13 b5 bc e5 f6 a6 3d
       -0.074430235 -0.051389825 -0.022104198 0.0815256
0001b0 b9 0e 93 bd a3 e9 39 be f3 90 3c bd e6 41 a8 3b
       -0.071805425 -0.18155532 -0.04603667 0.005134809
0001c0 16 c6 2c 3e 81 21 cb bd 12 7c e4 3d 02 33 da bb
       0.16872439 -0.099185 0.11156477 -0.0066589126
0001d0 c3 f5 32 3e ad 7a 09 be 02 2b d3 3d c5 df 76 3d
       0.17476563 -0.13425703 0.103109375 0.060271997
0001e0 8f 47 04 be a7 ea c8 bc 8f 53 61 bd 18 0f 2d bb
       -0.12917922 -0.024525953 -0.05501133 -0.0026406702
0001f0 82 eb 9f bd a1 38 fb bd 3f 61 48 bc 9c 4d 78 3e
       -0.078085914 -0.122666605 -0.0122302165 0.24248356
000200 70 77 c3 3d 10 59 66 3e 43 38 de bb 22 86 8d bd
       0.09544265 0.22494912 -0.0067816093 -0.069103494
000210 19 86 97 be 3c 11 96 bd 21 90 72 be d4 bd 2f 3e
       -0.29594496 -0.07327506 -0.23687793 0.17162257
000220 a9 a6 bc 3d 48 db 54 3e ef bf a3 bc 57 36 7f 3d
       0.092114754 0.20786774 -0.019988982 0.062307682
000230 ae 7e 97 3d 54 aa e5 3d 55 e3 f5 3d c5 e3 2f 3e
       0.07397209 0.11214128 0.12006251 0.17176731
000240 3d f2 d1 3d 68 07 e0 bd 90 1b bc 3d 56 da 6b bd
       0.102512814 -0.10938913 0.09184945 -0.05758127
000250 da 3c 0d 3d 8c e7 dd bb
       0.03448186 -0.0067719873

bias f4 [6]
000000 b5 52 fe 3d e6 eb 38 bd 5d c3 8f bd 2e f0 7a 3b
       0.12418119 -0.045146845 -0.070196845 0.003829013
000010 50 ce 31 be 5a ec 0e 3e
       -0.17363858 0.13957348

weight f4 [16, 6, 5, 5]
000000 4b 36 39 3c cc 1a 8f 3d f1 8a 84 3d 3a d0 49 3c
       0.011304448 0.06987533 0.064718135 0.0123177115
000010 8f 4d 29 3d fd 06 2c bd 95 59 40 3d 48 66 86 bd
       0.04133373 -0.041998852 0.046960432 -0.06562477
000020 ea 83 6a 3c f5 c0 99 bd 0c a0 a9 bc f6 67 a3 bd
       0.014313677 -0.07507507 -0.0207062 -0.07978813
000030 13 63 68 3d a7 98 4e 3d 19 54 e1 3b 97 99 ff 3c
       0.05673511 0.05043855 0.0068764803 0.031201167
000040 fd 3a d3 3b b3 c4 4c 3d 49 cc 1d 3d 6d 95 6a 3d
       0.006446241 0.049992274 0.0385249 0.05727141
000050 1a ba 90 3d 7a bb 4e bd d7 5c aa 3c 5e 4a 68 3d
       0.07066746 -0.05047176 0.020796223 0.056711547
000060 b6 ec 6e 3c 4f 2b 4c 3d 73 0d a2 3b 03 e4 e6 3c
       0.0145828035 0.04984599 0.004945451 0.028184896
000070 4f 53 33 3d 8c ce 8f 3d 41 53 48 3d 6c e2 4a 3b
       0.04378062 0.070218176 0.048907522 0.0030957712
000080 4b c9 3b 3c f9 4c 24 bd 5a 0b 93 3d eb d2 59 3d
       0.011461566 -0.04011247 0.071798995 0.053179663
000090 46 0f 84 bd 1b c2 b3 bb 9c 7e 91 bd 67 5f 11 3c
       -0.06448226 -0.0054857857 -0.07104227 0.008872843
0000a0 e4 0d 6e bd 50 cc f7 bc 69 5a 07 bc 4f 19 20 3d
       -0.058118716 -0.030248791 -0.008261302 0.039086636
0000b0 84 78 3c bd fb ec a9 ba 55 6d 40 3d 76 e0 2e bc
       -0.04601337 -0.0012964302 0.046979267 -0.010673633
0000c0 f3 31 93 bd 4b 4a 89 3d 33 c3 5f bd 99 ae 68 bd
       -0.071872614 0.067036234 -0.054629516 -0.056807134
0000d0 06 ee 98 bc cb bb 6d 3d f9 95 99 bd 47 6f 69 bd
       -0.018668186 0.05804042 -0.07499308 -0.056990888
0000e0 d7 0b 6c 3d a3 af ad 3c 73 79 c1 3b 61 b5 68 bd
       0.05762848 0.021201914 0.0059043705 -0.0568136
0000f0 90 a4 84 3d f9 16 92 bd 70 9b 31 bd 36 36 3e bd
       0.064767 -0.07133288 -0.043361127 -0.04643842
000100 a1 9e 48 bd c9 ea 07 bd 4f 11 8a 3d 74 f2 d4 3a
       -0.048979405 -0.033182893 0.067415826 0.0016246573
000110 1b b6 3d bd da ed 25 bc d8 9a 81 bc 36 78 8d 3d
       -0.046316247 -0.010127509 -0.015820906 0.06907694
000120 c0 c9 76 bd 85 a2 9f bd 26 73 ff 3c 03 c8 3c bd
       -0.060250998 -0.0779467 0.031182837 -0.046089184
000130 e8 20 44 3d 37 30 3b 3c 5f 49 23 bc d1 1d 70 3d
       0.047882944 0.0114250695 -0.0099662235 0.058622185
000140 9a 53 3b 3d 6e 29 8e 3d 35 24 6d bd f5 8e 91 bd
       0.045734026 0.06941496 -0.057895858 -0.07107345
000150 36 fd 67 bd ef e8 b9 bc a4 8a c9 bc 54 6a 79 bd
       -0.056637965 -0.02269408 -0.024602242 -0.060892418
000160 a8 2d 42 3d 5d 30 84 3c 47 2e 05 bd 39 a6 91 3d
       0.047406822 0.016136343 -0.032514837 0.071117826
000170 d3 03 07 bc ec af 67 bd 0c 0b 85 bc 84 a7 7d 3d
       -0.008240658 -0.056564257 -0.01624062 0.061927333
000180 c5 39 83 bd 7a 19 9c bd a6 e2 f2 bc d1 8f 22 bd
       -0.06407503 -0.07622047 -0.02964909 -0.039687935
000190 74 d3 04 3d 42 25 93 bd 48 7d 60 3d a8 ad 2b 3d
       0.03242822 -0.07184841 0.054806978 0.04191366
0001a0 78 e8 42 3d 40 c3 87 3b a2 de a5 3d 54 60 74 3d
       0.04758498 0.0041431487 0.080991045 0.05966218
0001b0 aa 08 9e bd 58 73 16 3c 6c 2c 07 3d 16 bc cb bc
       -0.07716496 0.0091827735 0.03300135 -0.02486996
0001c0 1c cc ed 3c c4 56 89 3d f0 70 f7 3b 6a b0 99 3d
       0.029027991 0.06706002 0.007551305 0.075043514
0001d0 b4 3d 19 3d df dd 2c bd 40 66 3d 3d dc 15 6e 3d
       0.03741236 -0.04220378 0.04624009 0.058126315
0001e0 44 68 5c bd 84 29 36 3d 58 21 f2 bc 14 16 92 3d
       -0.053810373 0.044473186 -0.029556915 0.07133117
0001f0 02 a8 86 bc 30 c3 10 3d 92 de a0 bd 65 05 18 bd
       -0.016437534 0.035342395 -0.07854952 -0.03711452
000200 89 e2 b8 3b 4f a0 81 3d c4 a6 30 bd 21 38 a0 3d
       0.0056422395 0.063294046 -0.04312779 0.07823206
000210 74 b7 99 bd f1 6b e2 bc 15 bc 4d bd 05 13 13 3c
       -0.07505694 -0.027639361 -0.050228197 0.008976703
000220 6e 5a 5f bc da d1 94 3d 00 ba 35 bd 35 8b 93 bc
       -0.0136324 0.072665885 -0.044366837 -0.018010715
000230 9d cd 18 3d 93 a5 3d bd 62 d3 8a 3b 8c 3c 8b bd
       0.037305463 -0.046300482 0.0042366246 -0.06798658
000240 24 3c 73 bd bb f5 da 3c 5e 9c 97 bd e6 f0 83 bc
       -0.059383526 0.026728502 -0.074028715 -0.01610608
000250 c0 cb 9a 3c 6a fa 72 3d 83 ac f0 3c 08 84 e2 3d
       0.018895984 0.059320845 0.029379135 0.11060339
000260 d6 9e 85 3d 4e 0f c4 bb d4 f5 af 3d ee 9a de 3d
       0.06524436 -0.00598327 0.0859181 0.10869394
000270 17 0b 03 3e e4 b0 94 bd ae 57 2f bb c4 16 df 3d
       0.12797199 -0.07260302 -0.0026755142 0.10893014
000280 e2 eb 94 bc 10 6a 06 3e a8 a7 c1 3c fd 17 14 bc
       -0.018178884 0.13126397 0.023639515 -0.009038922
000290 c1 6d d9 3d e9 8a 09 3d 92 ae c4 3b b3 75 4f bc
       0.10616637 0.03357974 0.0060022557 -0.012662339
0002a0 a3 b0 86 3c 6f 91 0d 3e fb f4 56 bc 77 c7 f2 3d
       0.016441649 0.1382501 -0.013119931 0.11854451
0002b0 7f f7 62 bd f6 fa a4 3d 56 cd 00 bc 54 e0 7d 3d
       -0.055411812 0.080556795 -0.007861456 0.061981514
0002c0 8a f0 10 3c 96 81 15 3c 39 3f 15 bd 5f 90 b8 3c
       0.0088464115 0.009125134 -0.036437247 0.022529779
0002d0 c2 bb 82 3d 76 e5 d6 3c c1 e8 fa bc a7 9a 2e 3d
       0.06383468 0.026232462 -0.030628564 0.042627957
0002e0 a6 05 8d 3c 66 d2 79 3d a2 19 7b bd 97 60 a3 3b
       0.017214607 0.060991667 -0.061303742 0.0049858796
0002f0 18 19 2d bd 1a ae a0 3c b2 82 9d bd d2 6c 9d 3d
       -0.04226026 0.019614268 -0.07690944 0.076867715
000300 8c f7 94 3d b3 b4 1d 3d 93 20 b8 3c ca 2d 28 3c
       0.07273778 0.038502406 0.02247647 0.010264823
000310 77 d0 25 bd 49 fc 7f bd 7d c6 82 bd 68 3b 9f bb
       -0.04048201 -0.062496457 -0.06385515 -0.0048593767
000320 ba 39 3a bd 84 f5 a9 bb 45 6b 24 39 57 13 8c bc
       -0.04546521 -0.0051867384 0.0001568022 -0.017099066
000330 92 35 ad 3d 9c 78 a5 3d dd db 8a bd 7e 6c 57 3d
       0.08457483 0.08079645 -0.06780217 0.0525937
000340 37 33 36 3d fd d5 83 bc be 91 98 bc e5 1a 2f 3d
       0.044482436 -0.016093249 -0.018624183 0.042750258
000350 9c f4 39 3d 77 8e 62 3d e8 f0 1e 3c 62 77 13 3d
       0.045399293 0.055311646 0.009700991 0.036002524
000360 5f d6 78 bd ea 2e 2b 3d 71 7f 0a bd b2 ed 78 3d
       -0.060751315 0.041792788 -0.033812944 0.06077356
000370 4d e1 dd bb 49 71 05 bd 64 36 32 bd 56 51 da bd
       -0.0067712427 -0.03257874 -0.043508902 -0.10660045
000380 0f 73 cf 3d 23 24 0b 3d 38 02 39 3c 19 63 06 3e
       0.101293676 0.03397001 0.011292033 0.1312374
000390 fd 83 59 3d ed c5 1f bc 81 57 16 3c f7 44 5e 3d
       0.05310439 -0.009751779 0.009176136 0.05426499
0003a0 34 a4 24 3e 53 b9 a8 3d df 5d c7 3d 6f 02 5c 3d
       0.16078264 0.08238473 0.09734701 0.05371326
0003b0 1b cc 57 bd d9 51 d2 3d 7e 39 71 3d 98 61 f7 3d
       -0.052684885 0.102695175 0.05889272 0.120791614
0003c0 89 2c b5 3d e2 90 92 3d 28 58 7a 3d ac 26 6b 3d
       0.08846385 0.071565405 0.06111923 0.057409927
0003d0 c7 2a fe 3d 85 f1 c1 3d 73 05 9a 3d 69 ee f7 3d
       0.12410503 0.09469894 0.075205706 0.1210602
0003e0 98 20 be 3d fd 9f 1c 3c 9d 66 94 bd 5c 74 15 3d
       0.092835605 0.009559629 -0.072461344 0.036487922
0003f0 76 da 8c 3c b8 95 8d bd b4 9d 1a bd 55 8a a4 3d
       0.017194014 -0.06913322 -0.037748054 0.08034197

bias f4 [16]
000000 b8 b4 d0 3a db 98 87 3d 8c 2e f3 bb 6f 36 55 3c
       0.0015922999 0.06620952 -0.0074213203 0.013013466
000010 bf 1a d3 bc 4f 5d 85 bd 7d c7 11 3d 3e 02 3d bc
       -0.02576959 -0.06511938 0.035590637 -0.011536179
000020 dd 58 9f 3d 4b 15 cb 3d 25 21 20 3b e6 98 81 bd
       0.07780621 0.09916171 0.0024433818 -0.06327991
000030 7c 85 94 bd d9 c4 56 bd 73 78 40 3e ca 57 44 bd
       -0.072520226 -0.052433822 0.18795948 -0.047935285

weight f4 [128, 400]
000000 7b 2f 4b 3d c4 28 05 3c 86 c2 67 bb 9e 18 8f 3b
       0.049605828 0.008127395 -0.0035363748 0.0043669483
000010 4b 35 df 3c 95 98 2e bd 32 90 44 bb 54 5a 4c bc
       0.027247092 -0.042625982 -0.0029993174 -0.012472708
000020 7b e8 05 3d b3 a2 3b bd ba 82 f4 bc 0f 93 24 3d
       0.032692414 -0.04580946 -0.029847492 0.04017931
000030 74 d3 cf 3c 75 a5 1e 3d 67 9e ef bc e5 00 d8 3c
       0.025369383 0.03873201 -0.029250337 0.026367614
000040 b0 f4 d9 3c 73 cb fc bc 00 b7 b0 3c 40 db 09 3d
       0.026605934 -0.03085873 0.021571636 0.03365636
000050 6c 87 64 bc 35 82 25 3c b7 ee 4a 3d ee 78 12 3d
       -0.013948303 0.010101845 0.049544062 0.03575986
000060 f5 44 1b bc 31 ef 2d bd 8f d1 56 3d 17 c3 38 3c
       -0.00947689 -0.04246444 0.052445944 0.011276982
000070 0b 4f 3f 3d 5d 25 2e bd 4c 51 ba 3c e4 48 d9 3c
       0.04670624 -0.0425161 0.022743843 0.026524015
000080 b7 73 0a 3d 15 77 54 3d d2 f3 16 3d db 45 89 3c
       0.03380176 0.051871378 0.03685362 0.016756942
000090 88 ed d4 3c be b1 e4 bb 39 ba 0e bd 30 f8 1a bd
       0.02599217 -0.0069791963 -0.034845565 -0.037834346
0000a0 ac 94 3b 3d e2 63 ca bc 80 0b d0 bc 23 4c 6b bc
       0.04579608 -0.024705831 -0.025396109 -0.014361414
0000b0 6a 89 74 3d 9a 5b 62 3d b9 bf 98 bc 4e c8 2b 3c
       0.05970136 0.05526314 -0.018646108 0.010484768
0000c0 e8 04 38 3d cf df 8d bb 62 b2 bc bc bf 02 1b 3d
       0.044926554 -0.0043296586 -0.023034278 0.037844416
0000d0 c7 10 fb 3b 3f 14 12 bd 33 62 18 3d 89 ad 4c 3d
       0.007661912 -0.03566384 0.037203025 0.049970184
0000e0 12 1b 8c bc 86 de 82 3b 08 e4 0d 3d 8f c8 9d ba
       -0.017102752 0.003993812 0.034641296 -0.001203792
0000f0 59 98 c1 3c 29 d0 4d 3c ce da 08 3d df c6 31 bc
       0.023632215 0.012561836 0.033411793 -0.010850637
000100 5c fd 27 bd dd e6 4b 3d 41 28 8d 3c d4 bd eb ba
       -0.041013107 0.049780715 0.017231109 -0.001798565
000110 c8 cd 44 3d e7 46 0c 3d 4a 62 eb bb 72 81 c4 bc
       0.04804781 0.034247305 -0.007183348 -0.023987506
000120 ed 58 e0 bb b4 ff db bc 39 5c 1f 3d 5b f6 df 3c
       -0.0068465383 -0.026855327 0.03890631 0.027339151
000130 1c 83 d4 bc 24 6c 0f bd c8 12 82 bb f7 51 ff 3c
       -0.025941424 -0.03501524 -0.003969524 0.031167014
000140 7d d4 f4 3c 10 24 4a bd f9 80 c1 3c dc 59 35 3d
       0.029886479 -0.049350798 0.02362107 0.04427515
000150 1b de 52 bc 87 1b c3 3c 44 b3 85 3c fe 42 f1 bc
       -0.012870337 0.023816837 0.016320832 -0.02945089
000160 b5 8b 2a bd 28 0e 3c bd 88 bb eb 3c 40 b5 e7 bc
       -0.04163714 -0.045911938 0.028775945 -0.028284669
000170 eb 6a b8 3c 18 1b e8 3c 2f 72 da bc d5 64 11 3b
       0.02251192 0.028333232 -0.026665775 0.0022185345
000180 ac 9c 02 3d 83 54 29 3d be 45 2b 3d a0 11 c0 3c
       0.031887695 0.041340362 0.04181456 0.023445904
000190 1f ef 49 bc 20 4e 2b bd 62 d3 0a bd 36 ae a8 3c
       -0.012325077 -0.041822553 -0.033892997 0.020590883
0001a0 df 94 ac bc 7b 52 15 3d 25 24 b5 3c 72 e9 6d bc
       -0.021067081 0.036455613 0.022111962 -0.01452099
0001b0 e7 26 3b 3d ed e1 ea bb db ec b1 3b 57 83 83 bc
       0.045691397 -0.0071680457 0.0054298467 -0.016053839
0001c0 bd e2 23 3d 7e 7f a9 bc c5 7c 9f bc 5b bb f3 3c
       0.040011156 -0.020690676 -0.019468674 0.029752424
0001d0 21 ab 07 bd cf 4d 53 3d ba d2 b2 3c 24 fd a2 ba
       -0.033122186 0.051587876 0.021828998 -0.0012435061
0001e0 c0 cb b2 3a e0 36 2d 3d 53 51 51 bc 26 b5 e1 3c
       0.0013641044 0.04228866 -0.012775737 0.027552199
0001f0 e0 9c a4 bc c0 29 33 bd 62 de ef bc 6a 3a 22 3d
       -0.020094335 -0.043740988 -0.029280845 0.03960649
000200 80 9f f2 3c 6f 2c ed bc 16 3b a9 bc a2 9b b0 bc
       0.029617071 -0.028951852 -0.020658057 -0.021558587
000210 79 10 4d 3d c6 f9 35 3d 20 14 2b 3d 28 42 b7 38
       0.050064538 0.044427656 0.04176724 8.7384426e-05
000220 05 11 ac 3c 78 93 30 bc e1 ae 4d 3d f2 53 23 3d
       0.02100421 -0.010777347 0.050215606 0.03987498
000230 13 a9 bf 3b 3d a0 b7 3b d0 59 04 bd f9 39 ab 3b
       0.0058490126 0.0056038187 -0.032312214 0.0052254167
000240 13 87 16 bd 2a e4 2a 3d 16 37 0e 3d 71 84 e7 bb
       -0.03674991 0.0417215 0.034720503 -0.007065349
000250 ae 4b f6 3c 6b f9 4b 3d 56 65 0a ba 14 a1 ca bc
       0.030065384 0.04979841 -0.00052793825 -0.024735011
000260 f3 ba 34 bc 35 3d 77 3c f1 8c e6 bc 3b f2 01 3d
       -0.0110309 0.0150902765 -0.028143378 0.03172515
000270 20 b6 da bb 57 a5 47 3d 39 e4 17 3d 3d d0 8b bc
       -0.006674543 0.048741665 0.037082884 -0.01706707
000280 c3 b7 74 3a 62 da 05 3d 8c 2c 1a 3d 32 a9 07 3d
       0.0009335244 0.03267897 0.03764014 0.03312034
000290 ba 43 2f bd e6 4a 8d bc 9b e7 c9 3b 97 b7 43 3d
       -0.0427892 -0.017247628 0.0061616427 0.047782507
0002a0 9c 9d db 3c a6 f7 2d bb ae de c1 3c 0b fc b2 bb
       0.026808552 -0.0026545315 0.023665752 -0.005462175
0002b0 84 7b 36 3c 55 6a a7 3c 2e d8 10 3d c6 89 06 bd
       0.011137847 0.020436445 0.035362415 -0.032846235
0002c0 87 0a 3d 3d 82 f8 fb 3b 7a 86 34 3c 30 a6 0a bd
       0.046152618 0.0076895365 0.01101839 -0.033849895
0002d0 69 31 08 bd 77 5c f4 bc 1a a2 a6 bc 19 70 58 3d
       -0.033250246 -0.029829247 -0.020340968 0.05284128
0002e0 50 59 21 3c cf 55 16 3d 8d 26 05 3d eb a6 d3 bc
       0.009847954 0.036702927 0.032507468 -0.025836429
0002f0 40 f0 f3 3c a9 ca 39 bc cc 83 46 3d 00 f2 5c 3d
       0.029777646 -0.011339822 0.048465535 0.053941727
000300 19 9d cf bc 8c 88 bb 3c d5 97 e4 bb 97 4b 30 3d
       -0.025343465 0.022892259 -0.0069761076 0.043040838
000310 8e 0b 09 3d 3e 09 15 3d 9e 6e 11 bd 0e 7d 04 bd
       0.033458285 0.036385767 -0.035505883 -0.032345824
000320 bb 99 1e 3d f2 5c 0c 3d eb cf 81 3c e1 4d e6 bc
       0.038720828 0.034268327 0.015846213 -0.028113307
000330 3c 8e 83 3c 03 9e 39 3d 5f 5e 0c bd 36 d2 3b bd
       0.016059034 0.045316707 -0.034269687 -0.04585477
000340 a6 6a d3 37 cc 08 1d 3c 78 3f 89 3c 20 db 5d b9
       2.5202822e-05 0.009584617 0.016753897 -0.00021157833
000350 09 93 28 bd ae fb e4 3c 12 63 c3 bc f2 cd af bc
       -0.04115585 0.027952041 -0.023850951 -0.021460507
000360 22 b6 e8 bc fe 80 47 3d 56 17 18 3d d5 f3 3f 3c
       -0.02840716 0.048707 0.03713163 0.011715849
000370 46 4e 3e bc 38 52 ef bc 63 fb ba bb b7 10 d5 3c
       -0.0116153415 -0.02921401 -0.005706237 0.026008947
000380 2c 70 c0 bc 31 bc 9c 3a f3 6d 58 b9 37 b8 21 bd
       -0.023490988 0.0011957941 -0.00020640325 -0.03948232
000390 58 27 fe bb b6 54 50 3d 2b c9 b8 bb ef 4b 1d bd
       -0.007756155 0.050862037 -0.0056392155 -0.038402494
0003a0 6e 7e 54 3c 7d 19 27 bb 96 34 0d 3d 02 2d 76 bb
       0.012969596 -0.002549737 0.034473978 -0.0037563448
0003b0 f2 34 73 3c d3 66 23 bd 99 f8 d6 3c e6 8e 0f 3c
       0.014844166 -0.039892983 0.026241587 0.008762097
0003c0 b3 f1 01 bc cb 9d 3b 3a 08 a7 42 3b 9b 3c 31 bd
       -0.007931161 0.0007156997 0.002970161 -0.04327069
0003d0 b6 9e 8a bc ab cb 3c 3c ab 60 7a bb b6 ee 5c 3c
       -0.016921382 0.011523168 -0.0038204591 0.0134846475
0003e0 a5 b2 c3 bc a5 f1 97 3c af e9 66 bc 17 a0 89 bc
       -0.023888895 0.018547842 -0.0140938 -0.01679997
0003f0 82 fc 88 3c 8c aa c4 bc fa 51 2f 3c 29 5e 29 bd
       0.016721968 -0.024007104 0.010700697 -0.041349564

bias f4 [128]
000000 de 51 f3 bc f6 5b 05 3c fc 17 3b bd bc e8 62 3d
       -0.029702123 0.008139601 -0.04567717 0.055397734
000010 36 01 b9 3c 4c 47 33 3d ce 04 64 3d 48 8c 08 bd
       0.022583585 0.043769166 0.055668645 -0.033336908
000020 80 08 3d 3d 5d 16 02 3d 61 aa 8e 3c 60 f2 06 bd
       0.046150684 0.03175961 0.017415227 -0.03294599
000030 c1 8a 65 bc 44 2e bc 3c ea c5 c6 3b a1 ff c8 3c
       -0.014010132 0.02297128 0.0060660737 0.024535956
000040 98 c6 62 ba 58 53 4a 3c f3 c3 22 ba 90 20 8d 3d
       -0.00086508086 0.012348972 -0.0006209008 0.068909764
000050 d2 26 36 3d 52 51 c1 bb 93 c3 57 bc 28 04 e2 bb
       0.044470616 -0.0058995867 -0.013169187 -0.006897468
000060 f3 ef 2f bd 8c 38 ae bb bb 9a e8 bb dd aa 49 bd
       -0.042953443 -0.0053167995 -0.0070985234 -0.049235214
000070 8e 7f bd 3c 33 c6 27 bd 07 e6 6b 3d 74 fa 3a bd
       0.023132112 -0.040960502 0.057592418 -0.045649007
000080 1e de df 3d e9 55 8c 3c 49 94 37 3c c1 b6 25 3d
       0.10931037 0.017130809 0.0112047875 0.04045749
000090 ea 1d bc bc 62 fe e6 bb 30 a6 34 3d 98 50 ba 3a
       -0.022963483 -0.0070493678 0.0441038 0.0014214693
0000a0 ff bf 8c bc b4 92 5e bd 02 4d 00 3d 90 88 1b 3d
       -0.017181395 -0.054339126 0.03132344 0.037972033
0000b0 86 26 45 bd 60 53 a5 3c 23 f0 7d bc c9 40 af bc
       -0.048132442 0.020181358 -0.015499148 -0.021393197
0000c0 f2 9d 94 3c 30 5e 2d bd f8 3a 81 3d 0e 9d 8a 3d
       0.01814172 -0.042326152 0.063100755 0.06768237
0000d0 2a 50 06 3d 81 e1 9f bc 8c 20 2d bd ca ee 2b bd
       0.032791294 -0.019516708 -0.042267367 -0.041975774
0000e0 58 a4 66 bd de f2 1e 3d 7f 36 4b bd c7 05 00 bb
       -0.056309074 0.038805835 -0.04961252 -0.0019534694
0000f0 24 36 b8 bb cb 34 00 3d 4c c6 0d 3d ff ed d8 3b
       -0.0056216884 0.031300347 0.03461294 0.006620168
000100 dd 27 3c 3d c3 21 53 3d 51 bb ee 3c 3d ef 7f 3d
       0.045936454 0.05154587 0.029142054 0.062484015
000110 05 78 8d bc f2 10 9c 3c b1 2e 32 3d 52 26 7c bc
       -0.017269144 0.019051049 0.04350156 -0.015389996
000120 ee 62 18 bc 54 bd 88 bb f2 70 3e 3d 7f 22 4a 3d
       -0.00930093 -0.0041729603 0.04649443 0.049349304
000130 93 db 79 ba 0a 66 13 3d 67 4f 01 bd cd 66 c7 bc
       -0.00095313153 0.035985984 -0.031569865 -0.024341011
000140 10 ec 39 3b e1 7e ff 3c 42 f6 1e 3d 43 57 38 3d
       0.0028369464 0.03118843 0.03880907 0.045005094
000150 2c 02 07 bc e1 f5 2a bd 50 63 d7 3c 4a 4e 9e 3c
       -0.008240264 -0.041738395 0.026292473 0.01932444
000160 e7 d8 29 bc a9 1c 45 bc 85 b2 e4 3c 00 10 14 3d
       -0.010366655 -0.012030759 0.027917156 0.03614807
000170 8d 0c 8d 3d c2 0d f5 bb 2c 5c 36 bd 57 0b b1 bc
       0.068871595 -0.0074784467 -0.044521496 -0.021611853
000180 08 db 66 bb 3d 0c 48 bc 91 7e 18 3d a8 e4 d4 bb
       -0.0035225768 -0.012209949 0.037230078 -0.0064969845
000190 a2 72 1e bb 7e 02 2b 3d 70 0b 0c 3b a8 ea db 3c
       -0.0024177213 0.041750424 0.0021369122 0.026845291
0001a0 70 3d ba 3c f8 ac 00 bd c3 4d 08 3d c6 47 11 bd
       0.022734374 -0.031414956 0.033277284 -0.03546884
0001b0 64 e9 3d 3c ed ac 82 3d 8f c3 0f bd 31 f8 07 3c
       0.011591289 0.06380639 -0.03509861 0.00829892
0001c0 12 c4 ed bc ab 34 14 3c 3d 54 29 3d 40 4e 81 3b
       -0.029024158 0.00904576 0.0413401 0.0039460957
0001d0 50 b0 26 bd 4c 53 08 3d 16 3f c1 3c 52 c7 90 3c
       -0.04069549 0.033282563 0.023589652 0.017673168
0001e0 cb f1 12 3d 78 79 5e bc 6f 76 80 3d e7 84 e5 3b
       0.035875123 -0.013578765 0.062725894 0.0070043686
0001f0 a8 cf 92 3b 6f b7 0d bd 8d e9 25 bd 78 d2 d2 3c
       0.004480321 -0.034598764 -0.040505935 0.025735125

weight f4 [32, 128]
000000 60 5f f2 bb 63 99 31 bd 90 65 97 3b 83 1e a3 bd
       -0.0073966235 -0.04335917 0.0046202615 -0.07964804
000010 f7 ce 67 bd 97 8e 46 bd a6 1d a1 bd 78 8b 1d bc
       -0.05659386 -0.048475828 -0.07866983 -0.0096157715
000020 b7 85 1b bd 00 f2 8d 3c 52 f4 af bd 00 9b 07 3b
       -0.037969317 0.017327309 -0.08591522 0.0020691752
000030 68 a9 a0 bd b0 b4 95 3b f9 a8 a9 3d 20 f0 7f bd
       -0.07844812 0.004568659 0.08284182 -0.06248486
000040 74 3c 8e bd 68 e5 b1 bd c8 40 a9 bc 73 28 9f bd
       -0.06945124 -0.08686334 -0.020660773 -0.07771387
000050 f9 ce 98 3d 6e 8e e0 bc 4f 68 44 bd 1a 0e 18 3d
       0.07461352 -0.027411666 -0.04795104 0.037122823
000060 97 1d a0 3d 12 50 50 bd 28 4c f7 3c 52 84 a9 bd
       0.07818144 -0.05085761 0.030187681 -0.08277191
000070 26 da 8a bd 12 00 66 3d 5b ab 9d 3d 1b b8 ae 3d
       -0.0677989 0.05615241 0.07698699 0.08531209
000080 d0 17 f2 bb 5a 29 f7 bc a0 b1 79 3b 53 8d 9c bd
       -0.0073880926 -0.030171085 0.0038100258 -0.07644143
000090 2f 08 a8 3d ee 54 4c 3d d8 68 52 bc da 7d 82 bd
       0.08204686 0.049885683 -0.0128423795 -0.063716605
0000a0 98 40 76 bc 96 0b 58 3d 4b 16 68 bd 84 8c cf bc
       -0.015030049 0.052745424 -0.056661885 -0.025335558
0000b0 fa 02 97 bd 2c fe bf 3c 82 30 70 3d 78 ff 04 bd
       -0.073736146 0.023436628 0.05864001 -0.032470196
0000c0 00 c4 3f bb c8 a2 7a bc 30 2a 3a 3c c8 89 12 3c
       -0.0029261112 -0.015297599 0.011362597 0.008943982
0000d0 ee 57 6b 3d 8c 0e 95 3c 20 79 49 bb 78 a2 9c bd
       0.057456903 0.018195413 -0.0030742362 -0.07648176
0000e0 40 7f b8 ba 50 c5 ac bd 71 17 64 bd e0 7e 5e bc
       -0.0014076009 -0.08436072 -0.055686418 -0.013580054
0000f0 72 70 7d 3d 14 d7 ae bc 0c d0 8f 3c 73 f7 77 bd
       0.061874814 -0.021342792 0.01755526 -0.06053872
000100 a8 97 89 bd 76 48 ae bd b0 7f af 3c 30 c8 5b bd
       -0.06718379 -0.085099146 0.02142319 -0.05365771
000110 f4 ee 97 3c fa 13 09 3d 12 8b 98 bd 62 9e 67 bd
       0.018546559 0.033466317 -0.074484006 -0.05654753
000120 30 57 08 bd 9d 52 43 bd 90 e4 b3 bb 60 63 bd bc
       -0.033286273 -0.047686208 -0.0054898933 -0.023118675
000130 a1 7f 16 bd b6 a4 8a bd 68 3f 46 bc 39 1a 30 bd
       -0.03674281 -0.06769697 -0.012100078 -0.042993758
000140 c0 d9 28 bc f6 14 18 3d 04 8d 1b bd c0 cb 73 3b
       -0.010305822 0.037129365 -0.03797628 0.0037200302
000150 f5 46 8f 3d 90 43 d3 3c c2 f9 43 3d 20 19 81 3b
       0.06995956 0.025789052 0.04784561 0.0039397627
000160 72 87 18 3d 06 67 56 3d b7 98 81 bd 0c b0 72 bd
       0.037238546 0.052344345 -0.06327956 -0.059249923
000170 a3 2d 83 3d de 9f 2c 3d b6 a0 8a bd 89 94 ae bd
       0.06405189 0.04214465 -0.067689344 -0.085244246
000180 88 b9 0e bd f6 33 87 bd d2 18 f3 bc a5 c2 80 3d
       -0.034844905 -0.06601708 -0.029674921 0.062871255
000190 49 00 86 3d 1c df 79 bd 68 34 fb 3c a0 07 a8 bc
       0.06543023 -0.06100379 0.030664638 -0.020511448
0001a0 2c c5 03 3d f6 ee 7a 3d 80 88 4c 3c 55 5a 46 bd
       0.03217046 0.061263047 0.012483716 -0.04842599
0001b0 67 cc 8b bd 67 6a 36 bd 91 19 ae 3d 1b 7b a6 3d
       -0.06826096 -0.044535067 0.0850097 0.08128949
0001c0 a8 d2 d0 bc 20 94 ce 3c 10 4e f2 bb a0 1d b2 bd
       -0.025491074 0.025217116 -0.0073945597 -0.08697057
0001d0 3d 8e 90 3d 87 6a 8d 3d b8 05 17 3c 06 d6 24 3d
       0.0705838 0.06905084 0.009217672 0.04024317
0001e0 ad 52 a2 bd 91 dc 41 bd 03 1f 2f bd 6d b3 b1 bd
       -0.079259254 -0.04732949 -0.042754184 -0.08676801
0001f0 cf 1c 89 3d 50 96 9a bd 0a a5 67 3d 00 56 db ba
       0.06694948 -0.07548201 0.056553878 -0.0016734004
000200 da ad a4 3d 38 e7 28 3c 81 9f 9a bd 1d 5d 71 3c
       0.08040972 0.010309033 -0.07549954 0.014731673
000210 ee 3d 43 3d 87 3d 15 3c 22 31 e6 3c 9b 86 b3 bd
       0.047666483 0.009108908 0.0280996 -0.08765908
000220 32 e5 19 bd 70 49 83 3d 3d 8a 2f 3d 43 9c 86 bd
       -0.037572093 0.064104915 0.042856444 -0.06572773
000230 cf 90 71 3c 0a 13 ae bc 82 a6 57 bb b8 f0 41 bc
       0.014743998 -0.021249313 -0.0032905643 -0.011837177
000240 00 ea a0 3d 6b 78 61 ba 16 3d 2c bd 27 f2 39 bd
       0.07857132 -0.00086010125 -0.042050444 -0.04539695
000250 de 55 80 3d d8 2c 35 bc 5a 95 d6 bc 7c 96 d1 3c
       0.06266378 -0.011058055 -0.026194263 0.025584452
000260 fa df 96 bd c4 4b 0e bd f8 77 21 3b 5c d1 a7 bc
       -0.07366939 -0.034740224 0.0024638157 -0.020485573
000270 20 b5 8e 3d bb f8 ce 3c cd 60 62 bd 64 f5 20 3d
       0.069681406 0.025265088 -0.055268098 0.039296523
000280 d7 1c c0 bd a7 1d 20 3d 26 4c db bc 68 4c 77 bd
       -0.09380501 0.03909078 -0.026769709 -0.0603756
000290 23 09 95 bd 4f b4 87 bc 2f 62 25 3c 6f 09 86 bc
       -0.07277133 -0.01656547 0.01009421 -0.01636192
0002a0 29 a3 5b 3d 71 59 73 bd ae 69 da 3b 8f 49 b2 bd
       0.0536224 -0.05941147 0.00666543 -0.087054364
0002b0 ba f4 5d bd bc ec b2 bb ec c8 24 3b a9 8c 6e 3d
       -0.054188468 -0.00546035 0.0025144173 0.058239613
0002c0 37 dd 6c bd 9c fa 94 3d a3 be b9 3d 8f b0 d0 3a
       -0.057828154 0.072743624 0.09069564 0.0015921759
0002d0 ef fb 43 bd 02 86 b1 bc 4b 31 00 3d 09 de 12 bd
       -0.047847684 -0.021670345 0.03129701 -0.03585628
0002e0 1b e8 75 bb 1e ef 82 3a ce e1 8c bd bc 51 a4 bd
       -0.003752238 0.0009989475 -0.06879006 -0.08023402
0002f0 ae b2 ef 3c f0 95 e1 3c cf ad 4f bd 5d 9e 0e 3d
       0.029260006 0.027537316 -0.050702866 0.034818996
000300 ef 41 35 3d b1 6b 23 bb eb dc a2 bd 9e 57 dc bc
       0.044252332 -0.0024936015 -0.07952293 -0.026897248
000310 cb 17 75 3d b3 0e aa bd b3 e6 8c bd 66 d8 7e 3d
       0.059837144 -0.08303585 -0.0687994 0.062218092
000320 ba 5e 76 3c d5 a3 e3 3b 97 22 cc 3a f0 7e 84 3d
       0.015037233 0.0069470205 0.0015574273 0.06469524
000330 85 26 bd 3c 19 b8 a0 3d 1d 45 51 3d de 3a b3 3c
       0.023089657 0.07847614 0.051091302 0.021878656
000340 b2 7d 86 3d 25 37 48 bd a8 5a a1 3d 60 70 86 bd
       0.06566943 -0.048880715 0.078786194 -0.065644026
000350 06 10 9a bd 4f a5 a8 bd 2f 81 63 3c ae e0 97 bd
       -0.075225875 -0.08234655 0.01388578 -0.07415901
000360 e2 b3 45 3d d0 d9 8f bd 25 87 ad 3c 76 28 44 bc
       0.048267253 -0.07023966 0.021182606 -0.011972537
000370 95 0d e7 3c 60 e3 14 3c 56 4a 5b bd 14 35 e3 3c
       0.028204719 0.009087414 -0.05353769 0.02773527
000380 15 27 29 bd 6c e1 7c bc 38 61 64 3d d4 a0 03 3d
       -0.041297037 -0.015434604 0.055756778 0.0321358
000390 d6 d9 74 3d fb eb e1 bc 1e 5e 64 3d 46 92 3e bc
       0.059778057 -0.027578345 0.05575382 -0.011631554
0003a0 29 cd 1b 3d b9 fc a4 3d 2c 0b 8c 3c 2f 6e 9f bd
       0.038037453 0.080560155 0.01709517 -0.07784688
0003b0 54 9b d7 3c c3 d7 8e bd 71 63 36 3c bd 60 02 3c
       0.026319183 -0.06974747 0.011132107 0.0079576345
0003c0 5e a2 ca 3c 2b 88 5b 3d b2 6c b6 3c f7 3c 89 bd
       0.024735626 0.053596657 0.022268627 -0.06701081
0003d0 d2 a7 88 bd ea fb 95 3d 71 fe 85 bc 31 3a d4 3c
       -0.06672634 0.073234394 -0.016356679 0.025906654
0003e0 ab 26 00 3d 5a a8 3b bd d1 d1 3b bc 10 26 9c bd
       0.031286877 -0.04581485 -0.011463598 -0.07624447
0003f0 5a a4 9b bc a6 fa 5a bd 32 d8 4f 3d d9 9b a3 3c
       -0.018999267 -0.053461693 0.05074329 0.019971775

bias f4 [32]
000000 00 02 18 b9 3b ff d6 3d 0b 27 99 3d b8 a9 d3 bc
       -0.00014496595 0.104979 0.0747815 -0.025837764
000010 93 e9 d3 3c 57 a0 e5 3a 4a d5 92 3d 67 08 41 3d
       0.025868213 0.0017519098 0.07169588 0.047127154
000020 80 9c ee 3b a8 2c 3e bd 13 46 34 bd 96 7d db 3d
       0.00728184 -0.046429306 -0.04401214 0.10717313
000030 d0 35 49 3d 5a b3 ab bd 52 78 e1 3d b4 b5 6e bd
       0.049123585 -0.08383818 0.110092774 -0.058278754
000040 ce 7f 22 3e bf 6f 4c bd 42 e9 24 3e 28 a6 d1 bc
       0.15869066 -0.049911257 0.16104606 -0.025591925
000050 41 8b b5 bd 38 9e bb 3d e9 f6 57 bd 0a 9f d2 3c
       -0.08864451 0.09161037 -0.052725706 0.025710601
000060 15 95 aa 3c 99 00 35 3e 39 6f e9 3d 0b 86 a1 bd
       0.020823041 0.17676009 0.11398167 -0.07886895
000070 ed ed 31 3d ea 9f 8b bd 63 15 fb 3c 6b 3d 6c 3b
       0.043439794 -0.068176106 0.030649846 0.003604735

weight f4 [1, 32]
000000 52 6b fd 3d 71 80 f5 3d ec 0c 76 be d9 7f 29 3e
       0.12373985 0.11987389 -0.24028367 0.16552676
000010 51 98 3f 3d ef 79 f4 3d 1c 9a 37 3e d1 b0 8c be
       0.04677612 0.119373195 0.17929882 -0.2747865
000020 81 1e 20 be a6 6d 0f bb 8d 31 06 be 8f c3 b8 be
       -0.15636636 -0.0021885424 -0.1310484 -0.360867
000030 84 18 3d 3d 25 8f 6e be 24 44 db 3e 9d 2d ab 3c
       0.046165958 -0.23296793 0.42825425 0.020895774
000040 aa 8e ac 3e 7f 17 26 be 2d 5e d9 3e b5 bc 27 3e
       0.33702594 -0.162199 0.42454663 0.1638058
000050 35 9d 7d 3c c1 ae 40 be 1e 0f 16 be 81 4e 95 bd
       0.015479376 -0.18816663 -0.14654204 -0.07290364
000060 1a 11 1c be 9c 37 cc 3e 4a 44 86 3e f4 49 86 3d
       -0.15240899 0.39886177 0.26223975 0.06557074
000070 64 3a 60 be 7f bb 2a 3e cf 15 a0 3d a4 60 14 be
       -0.21897274 0.16673087 0.0781666 -0.1448999
